p2_continuous-control/agent.actor_local_batch_size_128.pt (torch_old, 169646 bytes, 6 tensors)

model.0.weight f4 [256, 33]
000000 03 38 8c 3e 42 94 04 3e 9b 53 da be 91 a0 f1 bd
       0.27386484 0.12947181 -0.4264191 -0.11798204
000010 dc 92 a8 be d4 c5 d4 bd 40 99 39 3d fd 1a 1c 3d
       -0.32924545 -0.10389295 0.045312166 0.038111676
000020 9b aa a8 bd 39 0e ab 3e d0 76 17 bd e8 75 4a 3e
       -0.082356654 0.3340929 -0.036978543 0.1977154
000030 9e e2 7c 3b a6 10 1b bf 03 ab c8 3e ef b1 e4 be
       0.0038587223 -0.6057228 0.39192972 -0.44667003
000040 08 20 91 3e 96 df 89 3e 1b 62 09 be 8a d3 cb bd
       0.2834475 0.26928395 -0.1341633 -0.09952457
000050 2a ff 00 3f 9b 88 16 3f e1 06 9a 3d a4 d5 01 be
       0.5038935 0.58802193 0.07520843 -0.12679154
000060 eb ad cd 3e a1 a3 0e be 8f c8 25 3f 6c c0 85 3e
       0.4017175 -0.13929607 0.64759153 0.2612337
000070 ac 09 e4 3d f8 51 52 3e 5e da b2 bd c4 5d a5 3e
       0.11134657 0.20539081 -0.087330565 0.322981
000080 a3 b3 8b be b9 cb 3d 3e 61 5c 79 3f 97 f0 05 3e
       -0.2728549 0.18534745 0.97406584 0.13080059
000090 69 f1 85 3e 4e 16 8b 3e 96 c9 49 3c 60 1f 09 bd
       0.26160744 0.27165455 0.012316128 -0.033477187
0000a0 39 9d f6 bd fe 97 cc 3e 9f c6 44 3e 3c 92 76 3c
       -0.120417066 0.3995971 0.19216393 0.015049513
0000b0 4c c6 98 be 0a c7 dc be 6f 75 24 3e 02 a8 0a bf
       -0.29838789 -0.43120605 0.16060422 -0.5416261
0000c0 a9 3c a3 3d db 82 74 3e b8 97 07 3e 9d 0c dd 3b
       0.079705544 0.23878042 0.1324147 0.0067458884
0000d0 ff e3 1c 3e 52 29 a9 be 9e 54 63 3e 70 88 95 3e
       0.15321349 -0.33039337 0.22200248 0.29205656
0000e0 30 7a b0 3d 66 b2 70 be b1 28 94 3e cd bd 1d be
       0.086170554 -0.23505554 0.28937295 -0.15404435
0000f0 33 58 b0 3d 8e c3 ca 3e 70 5d a1 3d a4 d6 a8 3b
       0.08610573 0.3960232 0.0787915 0.0051525403
000100 5e 01 92 3e fb 9a c1 bf 2b 05 00 bf 49 ed 15 bf
       0.28516668 -1.5125421 -0.50007886 -0.58565193
000110 7b 9e ae 3e fa 5a 66 3e 4d e5 17 bf 12 69 0d 3d
       0.34105286 0.22495642 -0.5933426 0.03452403
000120 9a d7 03 3d ae 3a cb be ff ce 80 3d c5 0c b1 be
       0.032188036 -0.39693207 0.06289481 -0.34580055
000130 ee 65 a9 be c8 f9 34 3e 2a 1a 90 3e 1d 55 5b 3e
       -0.3308558 0.17673409 0.28144962 0.21419187
000140 2f 11 46 3e d9 de 16 be a4 77 d2 bd 15 53 04 be
       0.19342493 -0.14733447 -0.10276726 -0.12922318
000150 84 a2 29 bd 3d ff 46 3e 9b d8 34 3e bc 25 f0 3e
       -0.041414753 0.19433303 0.17660753 0.4690379
000160 67 9f 4f bf d8 60 e9 3d 7f 70 96 3d 74 cc 3d 3e
       -0.81102604 0.113954246 0.07345676 0.18535024
000170 76 63 16 bd 8a b2 38 be b8 f1 bb 3a a8 f5 42 3d
       -0.036715947 -0.18036857 0.0014339006 0.047597557
000180 60 1c 89 3e d8 e0 21 3d f5 3f bc bf 85 27 e7 be
       0.2677946 0.03952107 -1.4707018 -0.45147339
000190 70 93 05 be 4b 82 97 be 2a 3e 8c be 90 e4 d4 bd
       -0.13044524 -0.29591593 -0.27391177 -0.10395157
0001a0 11 3c a6 3d a1 14 14 bf ac 8b cc 3e 11 29 f0 3d
       0.081169255 -0.5784398 0.3995031 0.11726583
0001b0 4f 52 a0 bd 83 69 d7 bd ce e9 b4 3e 94 67 2f be
       -0.07828199 -0.10518172 0.3533463 -0.17129356
0001c0 f8 a4 26 3f cf 5b 15 3f 48 70 da bd d4 34 c7 bd
       0.6509547 0.58343214 -0.10665947 -0.09726873
0001d0 40 cd a4 bd 00 0a 39 be cd 62 98 3b 3b b5 ac 3d
       -0.08046961 -0.18070221 0.00465045 0.084330045
0001e0 5d 51 d3 3c e6 d7 0f bf 23 79 de 3e 28 67 73 3d
       0.025795633 -0.5618881 0.43451795 0.05942455
0001f0 b6 78 b5 bd 51 df af be 9e a2 87 3e af fb dd be
       -0.088609144 -0.34350064 0.26491255 -0.43356082
000200 94 99 00 3e 3c 6f 5e bd cf 6c 98 be ab 50 a7 3f
       0.12558585 -0.0543053 -0.29770514 1.3071493
000210 21 9e 82 3e c6 1e 96 be 38 4c 99 3e a5 75 96 3e
       0.25511268 -0.29320353 0.29940963 0.2938663
000220 6b bc a9 3e 56 7e 37 3e 9b 08 07 be 75 9b 48 bc
       0.33151564 0.17919287 -0.13186876 -0.012244095
000230 06 02 52 be 75 05 83 3e 33 a3 b5 bd f7 c2 1a bf
       -0.20508584 0.255901 -0.088690184 -0.6045374
000240 46 e0 0d be a6 ae b7 be b8 5b f1 3d 8d 4c 11 be
       -0.13855085 -0.35875434 0.11785072 -0.14189358
000250 0b 42 8b 3d ec bb 8c be 29 ac 45 3e 62 53 39 be
       0.06799706 -0.27487123 0.19303955 -0.18098214
000260 29 23 05 3f 88 aa 3b 3f d6 e0 f8 bd 23 fd a0 bb
       0.52006775 0.73307085 -0.12152259 -0.0049129887
000270 f7 be ef 3d 4c 16 90 3e 90 63 f2 3e e3 1d 78 3d
       0.117063455 0.2814201 0.47341585 0.060575377
000280 f5 6b e2 3c 18 c1 46 bd e9 97 c1 be 3a 4b b0 be
       0.027639369 -0.048523992 -0.3781121 -0.34432393
000290 e5 0d 03 40 b1 49 86 3e 10 78 40 3f 0f f1 ce be
       2.047723 0.26228097 0.751832 -0.40418288
0002a0 4a e0 be be 0d c8 fe 3d 6d 2a 13 be 67 d2 59 3e
       -0.37280494 0.124405004 -0.14371653 0.21271668
0002b0 56 b2 a0 be 2b 3a 29 be fa f8 db 3e 43 1a da bd
       -0.3138606 -0.16526096 0.42963392 -0.1064954
0002c0 b5 ad 67 3d 1c 51 1f be 9a c5 f0 bd 3d d7 c4 be
       0.056562144 -0.15558285 -0.117564395 -0.38445464
0002d0 71 8e d9 3c 43 92 15 3e 0a a5 04 be 1c ee bf bb
       0.02655718 0.14606576 -0.12953582 -0.0058572423
0002e0 1f ec 52 3e 11 80 e5 be 05 fb 7e 3e d0 00 05 bf
       0.20597886 -0.4482427 0.24900444 -0.51954365
0002f0 46 56 50 3c 4d e4 81 bc 9c 04 02 3e 24 61 b5 3d
       0.012715882 -0.015855933 0.12697071 0.08856419
000300 16 8e 6a 3e c6 b5 d6 3e c0 67 d7 3e f8 93 1f be
       0.22905764 0.41935557 0.42071342 -0.1558379
000310 9c c3 d7 be 3e 24 30 c0 54 33 da be d4 6c a4 3e
       -0.42141426 -2.752212 -0.42617285 0.3211428
000320 85 99 bc 3e 4f 80 bb bd f4 1f 63 bc 39 9e be bd
       0.36835876 -0.09155332 -0.013862599 -0.09307522
000330 90 70 9b bc 0a e7 26 be 55 fb 27 be 9a 99 98 bd
       -0.018974572 -0.16299072 -0.1640447 -0.07451172
000340 47 cf 30 be 0d a2 b0 3e 90 79 25 be 51 9d a3 be
       -0.1726657 0.34498635 -0.16159654 -0.3195596
000350 89 00 46 be 3e 0a 05 bf 44 c1 52 be a7 33 c7 bd
       -0.19336142 -0.51968753 -0.20581537 -0.09726649
000360 5c 6d 12 bd 19 9e 75 3e 66 12 f4 bd 79 ca e6 3d
       -0.035748824 0.2398609 -0.11917572 0.11269087
000370 5f e4 9c 3e 89 8b 46 bc 29 43 ce be 8f 1f c8 be
       0.30642983 -0.012118229 -0.40285614 -0.39086577
000380 8c 47 1f 3e 4e 76 d7 3e 22 a4 02 bf 74 ac b9 be
       0.15554637 0.42082447 -0.51031697 -0.36264384
000390 51 99 5a bd b3 08 d8 be 97 fb a8 3f 8b 54 e5 3e
       -0.05336887 -0.42194137 1.3201779 0.44791064
0003a0 af d8 a2 be a1 b6 77 3e c3 cc eb bd d9 4c fd 3d
       -0.3180594 0.24190761 -0.115136646 0.12368173
0003b0 35 d4 ea bd cc 59 50 be fd ba e7 bc b9 16 72 bd
       -0.114662565 -0.20346755 -0.028287405 -0.0591037
0003c0 35 67 12 3d 81 08 fe 3d 8a ae 66 3e 25 c5 59 3e
       0.035742957 0.12403966 0.22527519 0.21266611
0003d0 19 77 c0 be 90 af fd 3e 1a 02 31 be e7 d5 d2 3d
       -0.37590864 0.49548006 -0.17285958 0.10294705
0003e0 b5 86 4b bc 22 d9 19 be e6 6c ba bc 21 0d ff bd
       -0.012422253 -0.15024236 -0.022757005 -0.12453676
0003f0 8d 2b 96 3d 87 60 b4 3e 7e 57 2f bf 56 6d 51 3c
       0.073325254 0.35229895 -0.6849288 0.012782415

model.0.bias f4 [256]
000000 6e 90 74 be d4 22 45 be a8 7e ab 3d 93 2d 7c 3e
       -0.2388322 -0.19251567 0.08373767 0.2462676
000010 45 c0 51 be 37 66 0c bf 78 2c c5 be 1e 2d 04 bf
       -0.20483501 -0.5484347 -0.3851049 -0.51631343
000020 39 67 2d be cd fd d9 be ca 8c b7 be dd 42 23 bf
       -0.16933908 -0.42576447 -0.358496 -0.637739
000030 65 fb f0 3d c0 78 49 3e 26 12 20 be ca ae de bd
       0.117667 0.19674969 -0.15631923 -0.10873182
000040 39 12 f5 bb 4a 01 15 bf 2d 56 06 bf 3d 83 7e 3e
       -0.007478979 -0.5820509 -0.52475244 0.24854751
000050 8c d9 49 be 04 3f 7d 3e 56 b3 7d 3d d5 52 9e be
       -0.19711894 0.2473107 0.061938606 -0.3092257
000060 96 d0 84 3e b3 a1 b1 be 2f 9b 6f 3d 90 14 9f be
       0.25940388 -0.3469368 0.058497604 -0.31070375
000070 db f5 1d 3e ef d7 b3 bd 4a 99 d6 3d e0 03 77 3d
       0.15425818 -0.087814204 0.10478456 0.06030643
000080 a5 39 25 3e ef 7a 76 be 6a 42 62 be 80 09 07 3d
       0.16135271 -0.24070333 -0.22095647 0.032968044
000090 0e 05 43 be 9a e5 9e be a9 fa af bc a1 5b 54 3e
       -0.19044897 -0.31034547 -0.021481829 0.20738079
0000a0 53 34 a9 be 3d 63 88 3e a1 c3 df bc 34 70 d4 bc
       -0.33047733 0.26638213 -0.027314963 -0.025932409
0000b0 dc 99 8a be 2d 85 99 be e4 0d 85 be f7 42 d9 bd
       -0.2707051 -0.29984418 -0.2598716 -0.10608476
0000c0 2e d7 82 be 01 d5 21 be 98 ce 4e be 9f 9c a6 be
       -0.25554794 -0.15803911 -0.20195997 -0.32541367
0000d0 95 1a 2d 3e ad 40 66 be d6 b4 d2 3d 05 92 0e bf
       0.16904671 -0.2248561 0.10288398 -0.5569156
0000e0 9d df 4b be b6 a4 f7 be 8f 76 a5 be b5 8e aa 3d
       -0.1990952 -0.48367852 -0.32317016 0.083280005
0000f0 35 d5 67 3d fe 7a 65 be 0e 3b c4 bc 72 8a a2 3e
       0.056599814 -0.22410199 -0.02395394 0.3174625
000100 f9 84 0b 3d 11 36 f8 3d 6d 58 95 be b6 94 20 be
       0.03406236 0.12119687 -0.29169026 -0.15681729
000110 0b 42 73 be da 88 e0 be 45 d1 9d 3b 40 64 ab be
       -0.23755662 -0.4385441 0.0048162066 -0.33474922
000120 0f f5 af be cb ea 0f 3e ca 4a bc be 32 d4 88 be
       -0.34366652 0.1405441 -0.3677581 -0.26724392
000130 de 98 94 3d 28 20 10 be ad 34 0a bf c5 6a 6b bd
       0.072557196 -0.14074767 -0.53986627 -0.05747487
000140 58 c6 1e 3e a3 62 cd be 2d f2 24 be 28 cf 2c be
       0.1550535 -0.40114316 -0.16108008 -0.16875899
000150 49 4f 86 be bc 69 98 be d1 86 07 3e d5 5a 19 bc
       -0.26232365 -0.2976817 0.13235022 -0.009360035
000160 30 d9 38 bf 1f 2a 5c bb 61 67 9b 3e e4 05 1f bf
       -0.722064 -0.0033594442 0.3035231 -0.62118363
000170 5f ee a9 be da 7a f2 bd 76 fe 21 3e 0f b3 8d be
       -0.33189675 -0.11839838 0.15819725 -0.27675673
000180 4f 64 c0 be 41 03 55 be 8e 78 d5 be 05 3e 17 be
       -0.3757653 -0.20802023 -0.41693538 -0.14769752
000190 62 8d e1 be d2 a7 35 bd a5 e2 a6 bd db b9 95 3e
       -0.4405318 -0.0443495 -0.08148698 0.2924336
0001a0 94 7d ea be e0 76 ea be 02 0f 06 bf a4 65 e9 be
       -0.45798934 -0.4579382 -0.5236665 -0.45585358
0001b0 19 f4 d9 3d c3 19 3c 3e ac ad 33 3d 87 92 e2 bd
       0.10642261 0.18369202 0.0438668 -0.11063104
0001c0 54 81 15 be c0 66 d8 bd 7e 57 db be 16 0c 35 be
       -0.14600116 -0.10566473 -0.4284019 -0.17680392
0001d0 6d f1 a0 bd 56 05 ed be 70 27 33 be ed d3 aa be
       -0.07858548 -0.46293133 -0.17495513 -0.33364812
0001e0 d7 23 4d 3d bb 4f f7 3d 88 51 37 be 7f f7 eb be
       0.050083008 0.12075754 -0.17902195 -0.46087262
0001f0 e8 31 b2 be c9 ff 8e be 7a 50 5f 3d fd 56 d4 3d
       -0.348037 -0.27929524 0.054520108 0.10368154
000200 ba 17 19 be cf cc ef be a1 76 b5 be 1a c3 ad be
       -0.14950457 -0.46835944 -0.3544207 -0.33937913
000210 d4 9f 06 bf 7c f3 e7 be 20 5c db be a4 5e 86 be
       -0.5258763 -0.4530295 -0.42843723 -0.2624408
000220 f0 a9 93 be e7 bd a6 be f3 ed 01 be f4 69 33 be
       -0.2884059 -0.3256676 -0.12688427 -0.17520887
000230 68 94 48 be 23 cc 26 bf 7b c3 41 3c 68 a6 85 be
       -0.19587862 -0.6515524 0.011826391 -0.2610352
000240 8a 03 75 be 6c db 99 be 00 f0 98 bd a2 2f c2 be
       -0.23927131 -0.30050218 -0.07467651 -0.37926966
000250 1a 17 97 3c 5c 7c 34 bf 73 57 14 be 66 31 78 3d
       0.018443633 -0.7050226 -0.14486484 0.060593985
000260 b3 9c cf be fa 2f ac be d5 08 87 3e dc 22 b3 be
       -0.4054924 -0.33630353 0.26373926 -0.34987533
000270 e0 c4 8f be 71 a1 28 bd 4a dc 6b 3c 93 4a bf be
       -0.2807989 -0.041169588 0.014395783 -0.37361583
000280 52 84 9e be e3 9d 26 be ae 6d a8 be ec 3a 45 be
       -0.30960327 -0.16271167 -0.3289618 -0.19260758
000290 14 12 be be 70 58 a0 3e 3a e5 31 bf 47 e5 c5 bd
       -0.37123168 0.31317472 -0.69490397 -0.09662872
0002a0 40 3a 0a bf 2b 8b f7 be 1f ab ce be 98 b4 1a be
       -0.5399513 -0.48348364 -0.4036493 -0.15107954
0002b0 14 34 b6 bd 06 6e a2 bd ef a9 f5 bd c2 7e ab bd
       -0.08896652 -0.079311416 -0.11995303 -0.083737865
0002c0 6c a6 60 3e b7 93 e0 bd 1a a3 fa bd 65 1c 8f be
       0.21938485 -0.10965674 -0.122381404 -0.2795135
0002d0 d2 a8 78 3e d7 98 0f bf d3 30 02 be 72 ed 52 be
       0.2428315 -0.5609259 -0.12713937 -0.2059839
0002e0 de 8f ed be fb d2 ac be ec ad ff be c4 d7 5a be
       -0.46398824 -0.33754715 -0.4993738 -0.2137137
0002f0 65 70 f8 be 2c 8f 2e be a2 4e 6c be a9 f5 29 bf
       -0.4852325 -0.17046803 -0.23076871 -0.6639047
000300 59 a4 fc be 54 a2 09 3d ab 6c 1a be 54 8f b7 be
       -0.49344137 0.033602074 -0.15080516 -0.35851538
000310 4d fc 72 be a8 05 3c bf 14 5d da be 74 d2 60 be
       -0.23729058 -0.7344613 -0.42649138 -0.21955281
000320 b5 3a 04 bf 58 43 50 be d1 f1 95 be 6d 58 b5 be
       -0.5165208 -0.2033819 -0.29286054 -0.35419026
000330 80 03 2a 3e 09 0a a2 be 4b a4 d8 be 0b 76 fc bd
       0.16602898 -0.3164828 -0.42312846 -0.123272024
000340 95 ac 09 bf 5e 5f 3f bf 4f d2 ca be 60 82 ad be
       -0.53778964 -0.74754894 -0.39613578 -0.3388853
000350 1c 44 54 be 2d 3e cd be f4 16 71 3e 60 cf cc 3e
       -0.20729107 -0.400865 0.23543912 0.40001965
000360 01 3e 65 3d fd 91 29 be c9 c3 99 3e 1f 22 d8 3d
       0.055967335 -0.16559596 0.30032185 0.10553383
000370 5d 69 f6 be 23 9a f4 be 28 cd 09 be 41 89 b9 be
       -0.4812726 -0.47773847 -0.13457167 -0.3623753
000380 9a 83 fe be e7 c6 4b be 13 af 04 bf eb c6 30 3e
       -0.4970978 -0.19900094 -0.5182964 0.17263381
000390 33 40 d2 be 3c a6 30 bd ce cb ec bc 29 fa 77 bc
       -0.41064605 -0.043127283 -0.028905775 -0.015135326
0003a0 8f c9 38 be a2 3e 2e bd 0b f2 3e bf fa f9 0d bf
       -0.18045639 -0.0425402 -0.7458808 -0.5545956
0003b0 98 ac 8b 3c 6c 28 20 be f7 d4 94 be f1 8d 7b be
       0.017050073 -0.1564042 -0.2906873 -0.24565865
0003c0 09 0b 98 3b e9 f8 14 3e 56 84 6e be ef cd b0 bd
       0.0046399874 0.14548077 -0.2329267 -0.08633029
0003d0 30 6d e6 be 19 07 c9 bd 5c 4c ba 3e 3b 87 63 be
       -0.45005178 -0.09815807 0.36386383 -0.22219555
0003e0 45 8a d2 bd a6 e1 97 be 60 00 a8 3e 53 76 0f bf
       -0.10280279 -0.29664344 0.32812786 -0.56039923
0003f0 92 50 ef bd c6 b1 48 bf a2 f2 cd be 3d 29 e1 be
       -0.116852894 -0.7839626 -0.40224177 -0.43976775

model.2.weight f4 [128, 256]
000000 26 ba b4 3c b2 b4 19 be a3 0d 5f 3d 0b 74 e5 3d
       0.022061419 -0.15010336 0.054456364 0.11203774
000010 81 a7 14 3e b8 2b 5e be a9 68 f8 bc a7 0c 5e bc
       0.14517023 -0.21696365 -0.030323343 -0.013552821
000020 6b a8 a6 be 1c 6f cc 3d a4 d5 83 be 31 d3 26 be
       -0.32550368 0.0998213 -0.25748932 -0.162915
000030 56 47 41 bd 2f 20 3b 3e 4e 35 ab bc de 57 2b bd
       -0.047187172 0.18273996 -0.020899441 -0.041831844
000040 b9 d1 e0 bd 51 e6 97 be 7c d2 24 be fe 7f 97 bd
       -0.109775014 -0.29667905 -0.16095918 -0.073974594
000050 a6 1f 3d be 3b 54 14 3e 57 3e cf be 38 5d e4 3c
       -0.18469104 0.14485256 -0.4047725 0.027876481
000060 ec da 9e 3a 27 ff 1e be d1 b7 78 bc e0 f0 02 be
       0.0012119687 -0.1552702 -0.015180544 -0.12787199
000070 30 9c 9e be bd bf a2 be fd 94 c9 be 32 8e ba be
       -0.30978537 -0.3178691 -0.39371482 -0.3643661
000080 02 0a bd 3b af 08 9d bd 33 50 8f be 33 d0 52 bd
       0.0057690153 -0.07667672 -0.27990875 -0.051468085
000090 e7 62 59 3a 2d 61 95 bc 4f 93 17 bc be b8 e8 3d
       0.00082926307 -0.018234814 -0.00925143 0.11363362
0000a0 84 90 4f be 21 86 ed be e6 04 fe bd b2 3e c6 bd
       -0.20269972 -0.46391395 -0.12403278 -0.09679927
0000b0 ab e6 a3 bd 30 64 39 bc ea de a7 bd 54 87 d6 bd
       -0.08002981 -0.0113153905 -0.08196814 -0.104750305
0000c0 aa 8b 81 3c 61 f1 a1 3d 59 dc 2e 3e 05 a9 40 3e
       0.015813667 0.079073675 0.17076243 0.18814476
0000d0 c1 28 60 bd 4a 57 5a be b1 3c 75 be 61 7d 83 bc
       -0.054726366 -0.2132236 -0.23948933 -0.016050996
0000e0 e9 7b d5 bc 0c 18 47 bd 4e 31 ab bd ad 84 f9 3c
       -0.026060062 -0.048606917 -0.083590135 0.030458773
0000f0 ca e2 00 3e c6 46 33 be 1e 29 2d be 6a 9c 9e 3d
       0.12586513 -0.17507467 -0.16910216 0.07744677
000100 38 30 36 be 0e 77 58 3d 28 ff dc bd 35 6d 01 be
       -0.17791831 0.052847914 -0.10790855 -0.12639315
000110 00 f2 13 bd e4 47 fd bc b2 34 9a be 5b b7 ac 3d
       -0.03611946 -0.03091807 -0.30118328 0.0843341
000120 07 bd c2 bd e7 8d 76 be 30 8e 18 be f5 a1 0a be
       -0.0950871 -0.24077569 -0.1489799 -0.13538344
000130 31 93 ad bb 03 b4 d7 bd b2 75 64 bc 46 13 92 3c
       -0.0052970876 -0.105323814 -0.013944076 0.017831456
000140 c2 a9 5f be 06 f8 82 be d7 e9 1e be c0 6e 71 bd
       -0.21842101 -0.25579852 -0.1551889 -0.05894351
000150 5d 62 2d be 95 7f 06 bd 38 80 4d 3e 3d 99 02 be
       -0.16932054 -0.032836515 0.20068443 -0.12753768
000160 c2 88 d8 bd 35 25 37 be 47 1c c3 bc 26 92 32 3e
       -0.105729595 -0.17885287 -0.023817195 0.17438564
000170 17 cc b1 be 07 0b 94 3d 3f 01 7d be 3c ee d1 bb
       -0.3472602 0.07228666 -0.24707507 -0.0064065736
000180 c2 43 7c 3d 2c e3 1f be 19 b4 15 3d 36 44 82 be
       0.061588056 -0.15614003 0.036548708 -0.25442666
000190 e5 96 b8 be 5c c3 95 be b0 26 13 3d 25 67 a9 bd
       -0.36052623 -0.2925061 0.035925567 -0.082716264
0001a0 23 e8 33 be a6 14 ca bc d5 27 7a bc 10 9b 4e be
       -0.17569022 -0.024668049 -0.015268286 -0.20176339
0001b0 85 f3 24 bd 1a a4 4a be fc 85 70 3d a9 2e 79 3b
       -0.0402713 -0.19789162 0.058721527 0.0038022196
0001c0 ae 02 6a be 80 fa 02 3e 28 7b d2 bd 1f 67 f9 bd
       -0.22852585 0.1279087 -0.102773964 -0.12177872
0001d0 79 8a a8 3a e1 1a f2 3d 12 f5 15 3d 95 7e 61 be
       0.0012858651 0.11821533 0.03661067 -0.22020943
0001e0 9b 4e 84 be ae 31 42 bd 76 af f6 bd 32 d5 d0 3d
       -0.2584122 -0.04741066 -0.12045185 0.10196914
0001f0 d1 87 dd be 27 d1 b6 bc 80 75 32 be ca c0 bb be
       -0.43267682 -0.022316528 -0.17427635 -0.36670524
000200 35 d2 2c bd f9 e0 1a be 3e 04 23 bc 45 f6 54 bd
       -0.042192657 -0.15124883 -0.009949742 -0.051992673
000210 28 89 88 bd a7 e7 3a be 7a 78 5f be 47 1a bc bb
       -0.066667855 -0.18252431 -0.21823302 -0.005740437
000220 dd 56 7b bd d3 cb 75 be 32 ba b3 3d 58 a7 91 bd
       -0.061362136 -0.24003534 0.08775748 -0.071119964
000230 45 6d 3b bd d4 cb 2e be 3c f6 21 be 93 07 a7 3d
       -0.045758504 -0.17069942 -0.15816587 0.081557415
000240 0d 9a 4b be 11 55 3f be ba dd f5 bd 5e 65 65 3b
       -0.19882984 -0.18684794 -0.120051816 0.0035003047
000250 1c cb 2a be cb d3 1b be b8 3a 15 bd c0 ae cd be
       -0.16679043 -0.15217511 -0.03643295 -0.40172386
000260 ae 71 04 3e 22 b9 32 be f0 87 9d be c3 46 96 bd
       0.1293399 -0.17453435 -0.30767775 -0.073377155
000270 8e a6 51 be b8 fc 33 bd b9 f1 83 3c 18 28 d3 3c
       -0.20473692 -0.043942183 0.016106473 0.025775954
000280 20 2a 0f be b1 63 68 3c 8f 5d 80 be 0c 3d c9 bd
       -0.13980913 0.0141839245 -0.2507138 -0.09826097
000290 5a 9b 13 be fb e8 d2 bd 9d 6f 45 be c9 5e 85 3d
       -0.1441473 -0.10298344 -0.19280858 0.065122195
0002a0 4f 64 9b be 61 4b 11 be 7c 2a 36 bd 95 e2 4b 3c
       -0.30349967 -0.14188911 -0.04447411 0.012444158
0002b0 5e 1e 90 be 2f 2f 02 3e 6d 46 93 be 6d 89 1f be
       -0.28148168 0.12713312 -0.28764668 -0.15579768
0002c0 70 e2 37 be 27 57 be be 14 b2 ff bd 71 0c 41 bd
       -0.17957473 -0.37175867 -0.124851376 -0.047131006
0002d0 89 27 03 bf 47 0c 83 3c 8b 04 9c bd c4 64 fa bd
       -0.512322 0.015997065 -0.07618054 -0.12226251
0002e0 d9 3a 91 be 6b a0 47 3e c0 86 cf bd 39 79 48 be
       -0.2836521 0.19494788 -0.101331234 -0.19577493
0002f0 6d 80 a3 3d 35 ce 97 be 3b 4a 14 be c9 9f bf be
       0.0798348 -0.2964951 -0.14481442 -0.37426594
000300 9b 6d 92 bd 0f 7a e8 bd 50 0c 90 3c 95 15 0b bd
       -0.07149812 -0.11351406 0.017583996 -0.03395613
000310 d2 38 52 3e 81 4d 2f be ec 83 dc bd 88 54 0f be
       0.20529488 -0.17119409 -0.107673496 -0.1399709
000320 d5 df 4a be b6 f2 50 bd f6 43 a3 b9 80 ce 80 be
       -0.19811948 -0.051012717 -0.00031140418 -0.25157547
000330 f1 55 a3 bc 6f 72 99 be 91 10 0b bd 07 17 c0 3d
       -0.019938441 -0.29970118 -0.033951346 0.09379392
000340 d4 d0 09 be b0 84 23 be b4 82 24 3d c9 2c 55 3d
       -0.13458568 -0.15968585 0.04016371 0.052044664
000350 5f 50 b1 be 9a 88 52 be 61 ec a4 be c0 1c 5a 3e
       -0.3463163 -0.20559922 -0.32211593 0.2130003
000360 61 59 2f be 9c 88 9c 3d 1e da 93 be c2 a5 1b be
       -0.17123939 0.07643244 -0.28877348 -0.1519995
000370 53 f0 14 bd ac 9d 44 bd a2 e7 af bd 01 86 26 3d
       -0.036362004 -0.04800193 -0.08589102 0.04065514
000380 c2 8b ac bc 62 ba c4 bd 6d 25 e1 bd 0c 85 3e be
       -0.021062735 -0.09605862 -0.109934665 -0.18605441
000390 83 28 1a bc 76 72 ab be c9 6f 6a be 9d 40 ee bc
       -0.009409073 -0.33485764 -0.22894205 -0.029083544
0003a0 6f 05 f0 3d 50 ae 94 3d 25 d5 20 3d 37 12 ae bd
       0.117197864 0.0725981 0.03926577 -0.08499568
0003b0 11 ca 3a be dd a3 68 be 92 7a 86 be 8d 1f 6c be
       -0.18241145 -0.22718759 -0.2626539 -0.2305891
0003c0 e8 82 3c 3e cf ae 19 be e9 e3 13 be 8e 57 32 bd
       0.18409312 -0.1500809 -0.1444241 -0.04354053
0003d0 7c 70 54 be 62 d8 0a be 0a 74 02 3e 6b af 44 bc
       -0.20746034 -0.13559106 0.12739578 -0.0120047135
0003e0 ba 09 54 be f5 ca bd 3c 24 ee 79 be 9a c6 32 be
       -0.20706835 0.023168067 -0.2440725 -0.17458573
0003f0 9b a0 e5 bd 42 68 8a be fa bf 46 be 7a 32 72 bd
       -0.11212274 -0.27032667 -0.19409171 -0.05913017

model.2.bias f4 [128]
000000 93 f5 90 bc 03 95 3c be 1f 58 6f 3e 5f 5e ab 3d
       -0.017695224 -0.18416218 0.2337346 0.08367609
000010 d2 0f 96 bd 4e 40 11 be 20 08 a0 bc 59 35 13 3c
       -0.07327236 -0.14184687 -0.019535124 0.008984887
000020 01 14 c5 be d2 d8 de 3d ff 14 a6 be 50 8a bf be
       -0.38491824 0.10881199 -0.32437894 -0.37410212
000030 c5 20 84 be 03 ab 9b bd 54 63 64 bc 38 ac 2b be
       -0.2580625 -0.07600977 -0.013939697 -0.16764915
000040 de 87 ca 3c a8 89 78 be ac f8 e0 bd 47 b7 bd be
       0.02472299 -0.24271262 -0.109849304 -0.37053892
000050 41 a6 7b bd d8 c7 ba 3d 2a 04 9e bc 6b 02 8e 3d
       -0.06143785 0.091201484 -0.019289095 0.06934055
000060 e7 0c b4 bd 7d 57 f5 be 88 fa 9e bd ca 8d e5 bd
       -0.087915234 -0.4791831 -0.07762629 -0.11208685
000070 9e 82 a5 be b6 18 c7 bd 74 07 ad 3c bc 1f 73 3d
       -0.32326216 -0.0972151 0.021121718 0.059356436
000080 20 d9 e4 bc c8 d5 a9 bd 9f 34 9b bd 97 50 3c be
       -0.027935565 -0.08292729 -0.07578396 -0.18390118
000090 45 88 18 3e 2e 23 46 be d5 65 34 be a1 f8 9f be
       0.14895733 -0.19349357 -0.17616971 -0.31244376
0000a0 c9 b3 85 3d ab 4b 50 3e 2d 48 35 3e c3 26 39 be
       0.06528432 0.20341365 0.17703314 -0.18081193
0000b0 95 1e 06 bd b2 11 44 be d0 97 99 bc e1 e0 09 be
       -0.03274401 -0.19147375 -0.018749148 -0.1346469
0000c0 95 b8 a8 bd be 35 12 3c a9 ba ea bd f8 a7 70 be
       -0.08238331 0.008923946 -0.11461384 -0.23501575
0000d0 4b d9 3b bd 21 51 c1 bd a3 bc 50 bd 6c 19 13 be
       -0.045861524 -0.09439302 -0.050961148 -0.14365166
0000e0 39 87 b7 bd f2 42 11 be 6b 8b 7a bd d4 fb 49 bd
       -0.089613385 -0.14185694 -0.061168116 -0.049312428
0000f0 03 68 37 be 5c 99 56 bc 3c 7b 9f be ef 4b 76 be
       -0.17910771 -0.013098087 -0.31148708 -0.24052404
000100 a7 f5 e0 be fa a5 23 3e 09 1b 02 be f1 1b 2a be
       -0.43937418 0.15981284 -0.12705626 -0.16612221
000110 3e 53 9a be 61 35 e6 bd 0b 3c 0d be 03 55 e4 bd
       -0.30141634 -0.1124065 -0.13792436 -0.11149027
000120 c1 01 5a 3d 8f c2 ae be 8a b1 41 3e a9 43 d3 bd
       0.05322433 -0.3413281 0.18915382 -0.103156395
000130 3c 87 99 be d2 62 30 bd 92 61 0b bd 3e af bb bd
       -0.29985988 -0.043062992 -0.034028597 -0.09164284
000140 1a f9 8a bc 1a cf 98 3d b8 b0 80 be ed 3f d4 bd
       -0.016964484 0.074613765 -0.25134826 -0.103637554
000150 d1 2c 8f be 1c 42 9c be 50 24 0e bd e0 59 05 bf
       -0.2796388 -0.30519187 -0.0347026 -0.52090263
000160 a7 c5 68 3d f7 22 89 bd 2a d5 ae bc a8 c3 ce 3d
       0.05682912 -0.06696122 -0.021341879 0.10095912
000170 a4 c5 8c 3d cd 12 6c be 9f 83 40 be cc eb 7a 3e
       0.068736345 -0.23054047 -0.1880021 0.24504012
000180 51 73 f9 bc 7b 73 ed bd 55 fc 60 be 05 dc 45 be
       -0.030450495 -0.11594292 -0.21971257 -0.19322212
000190 a2 bd 72 bd 03 1a 03 be 0f af 35 bd 8f 77 69 be
       -0.05926288 -0.12802891 -0.044356402 -0.22799514
0001a0 4c ec 10 be a6 93 b8 3d 92 fd c8 bd d4 a0 bd be
       -0.1415264 0.09012537 -0.0981399 -0.37036765
0001b0 8f 36 5f 3d 98 c2 1f be 07 cc 83 bd 03 90 9f be
       0.05449539 -0.15601575 -0.064353995 -0.3116456
0001c0 b5 db 4a be a2 74 ae bb 8c a8 ae bd fd 7a 80 be
       -0.19810374 -0.0053239623 -0.085282415 -0.25093833
0001d0 65 f8 49 3d b9 cf f1 be 6a 76 8d bd e2 a7 49 be
       0.049309153 -0.47228792 -0.06907351 -0.19692948
0001e0 0c 69 30 be ad 5c 70 be fb 9b fd bd ba 76 2d be
       -0.17227572 -0.23472853 -0.123832665 -0.16939822
0001f0 83 b8 c8 bd 75 26 9c bc 44 b4 15 be ad 5d df 3d
       -0.09800818 -0.019061306 -0.14619547 0.10906539

model.4.weight f4 [4, 128]
000000 f0 46 17 3e 18 78 d8 be b8 9d 8b be 3c 81 7c bf
       0.14773154 -0.42279124 -0.27268767 -0.98634696
000010 e6 fc f0 3d d5 2a 98 bd 74 6c 1c 3f c0 24 03 be
       0.117669865 -0.074300446 0.61102986 -0.12806988
000020 dd 79 d2 3d cd 29 89 bf 24 b8 7b 3e 0d f1 8a 3d
       0.1027715 -1.0715882 0.24581963 0.06784258
000030 c8 f7 a4 3c 8d a8 f2 be 62 83 a8 3e 0b 34 37 be
       0.020137683 -0.4739422 0.32912737 -0.17890947
000040 77 94 57 be c5 74 15 3e 5f 52 40 3c 25 ee 4c 3e
       -0.21052729 0.14595325 0.011738389 0.2001272
000050 86 ec 93 be 64 6a a2 3e c4 cd e4 3d e1 19 98 be
       -0.2889139 0.31721795 0.11172059 -0.29707244
000060 66 cd 3a bf 53 1a e5 3e 0d fa 00 bf 80 1a f9 bd
       -0.72969663 0.44746646 -0.5038155 -0.121632576
000070 95 a1 00 3e e0 7a 6d 3f 75 45 9d 3e 2e ab 99 bf
       0.12561639 0.9276562 0.30717054 -1.2005365
000080 af e0 26 be 79 73 53 bf a5 05 1b be ab 60 46 3e
       -0.16296647 -0.8259807 -0.15138872 0.19372813
000090 b0 ff 13 bd b4 26 88 be fe 09 15 3f cd dd cb bd
       -0.036132514 -0.26592028 0.5821837 -0.099544145
0000a0 9e 07 7b bf 80 ae 8f 3e 64 ca 01 bf f8 0d 20 3e
       -0.980585 0.2806282 -0.5069945 0.15630329
0000b0 ee e3 57 3f 22 36 44 be 06 4e b0 3e ef 1b b1 bc
       0.8433217 -0.19161275 0.34434527 -0.021619765
0000c0 45 d0 66 3d 31 f4 e6 bd 92 a1 c0 bc e6 1d b2 be
       0.056350965 -0.112770446 -0.023514543 -0.34788436
0000d0 04 e3 e2 3d a1 98 bc be 4b b3 64 3e 59 85 28 3e
       0.11078456 -0.36835197 0.2233402 0.16457118
0000e0 86 b0 20 3c f0 30 55 3f 8b 05 1f bf fb 19 77 be
       0.0098077115 0.832778 -0.6211783 -0.24131005
0000f0 7e 48 0d be dc 03 ac bd c8 50 97 3e 83 76 0e 3f
       -0.13797185 -0.083991736 0.2955382 0.55649585
000100 69 10 c6 3d 21 5f 83 3d 2e 8e 69 3b fc 31 ed bd
       0.09671099 0.06414629 0.0035637724 -0.115817994
000110 74 8b 13 bf 80 9b 3b be 2b 6f a4 3d cb 97 b3 bf
       -0.57634664 -0.18321037 0.08029016 -1.4030699
000120 f4 93 50 3e e3 85 f5 3c 9c 96 05 3f 64 02 9a bf
       0.2036894 0.029971069 0.52182937 -1.203198
000130 b8 45 88 3e 18 90 8b be e3 36 96 3f 5d b4 fc 3d
       0.2661569 -0.27258372 1.17355 0.12339089
000140 74 c6 9e bf 37 54 fd bd 18 b0 10 be a7 94 eb bd
       -1.2404313 -0.12369578 -0.14129674 -0.115029626
000150 1c f2 2c be 12 82 79 bf 32 c5 1c 3d 50 61 82 bf
       -0.16889232 -0.97464097 0.038273998 -1.0185947
000160 ba f0 55 3f 9c ce 89 3d 28 8a 93 3d 4f 8b fa 3d
       0.83570445 0.06728861 0.072040856 0.12233602
000170 c2 70 9e 3d 82 e7 0c 3f 95 66 06 3e 84 b2 f0 be
       0.077363506 0.5504075 0.1312507 -0.47011197
000180 0e 67 1f bf a7 e1 f0 3d 55 13 15 3f f6 8f 07 3e
       -0.62266624 0.1176179 0.58232623 0.1323851
000190 7e cc 9c be 51 13 74 bd 13 9b 52 be cb 2f 75 3d
       -0.30624765 -0.059588734 -0.20566969 0.059860032
0001a0 45 12 f4 3e da f3 68 bf cd a9 4b 3e 49 fe ba 3e
       0.4767019 -0.9099709 0.19888993 0.3652213
0001b0 15 48 3f 3e cb e0 dc 3d b4 fd 5c be 47 f1 95 3e
       0.18679841 0.10785063 -0.21581155 0.29285643
0001c0 5c 07 dd 3e 72 0c 25 3e 9b b1 f3 3c 86 b9 0b be
       0.43169677 0.16118029 0.029747775 -0.1364499
0001d0 9d b0 45 3c 03 55 7b be 58 3b 51 be 96 d2 a2 3d
       0.012066034 -0.24544148 -0.20432794 0.07950322
0001e0 50 82 0c be 5e 34 49 3e 69 f4 14 3e 4f 84 68 bf
       -0.13721585 0.19648883 0.1454636 -0.90826887
0001f0 86 98 c8 be 87 96 f2 3d 26 a6 28 3e 40 47 bd be
       -0.39178866 0.11845117 0.1646963 -0.36968422
000200 b0 1e c8 3d bf fd 6f 3e 62 30 25 bc 38 78 54 3f
       0.09771478 0.2343664 -0.010082336 0.8299594
000210 11 89 03 bf d1 df 91 3c fd 57 72 be 10 a1 a6 ba
       -0.5138102 0.01780692 -0.23666377 -0.0012712795
000220 2c c5 88 3d 98 43 1f bf 66 6f 40 be a3 60 0d bd
       0.066782326 -0.62212515 -0.18792495 -0.034515988
000230 35 fb 63 bd 2b f2 56 bf bc 95 ae be 8f 70 10 be
       -0.05565949 -0.8396327 -0.34098613 -0.14105438
000240 f2 46 0f 3d be a0 da bc ff b3 9b 3e 39 75 72 bf
       0.034979768 -0.026687976 0.30410764 -0.9471012
000250 a0 dd a7 3e fa 66 9f be fc 33 30 3d 22 0c b6 3e
       0.32786274 -0.31133252 0.043018326 0.35556132
000260 22 e6 27 bf a2 47 fc 3e 5d 1c da bd a5 f2 27 3d
       -0.6558553 0.49273401 -0.10649941 0.04100289
000270 5e f3 c3 be 87 c9 6e be ba 3e 28 3f e9 4c d8 be
       -0.38271612 -0.23319064 0.65720713 -0.42246178
000280 c2 2d c0 3c 32 8a 88 bd 24 be 70 bd 3e 7a 81 3e
       0.023459319 -0.06666984 -0.058775082 0.25288576
000290 0a 8d 13 3f 09 9d 4f be dd a8 00 3d 5a ac 66 bf
       0.57637084 -0.20274748 0.03141104 -0.9010674
0002a0 67 c6 2a bd 99 5f eb 3e 0d 7c 98 be 02 71 86 bf
       -0.041693117 0.45971373 -0.29782143 -1.0503237
0002b0 44 94 0e bf 83 e5 ba 3e f8 5e 9a be 00 94 e2 bc
       -0.55694985 0.3650323 -0.3015058 -0.027658463
0002c0 99 5b 15 3e b6 bd 99 bf 1e 87 de 3e 39 9a ba be
       0.14585723 -1.201102 0.4346246 -0.36445788
0002d0 77 37 2f bf 05 15 7c 3e b2 7f 46 be d6 87 48 be
       -0.6844401 0.24617393 -0.1938465 -0.19583067
0002e0 62 ae 65 bf b0 5d d7 be 33 38 47 bf d5 95 8a 3a
       -0.8971921 -0.42063665 -0.7782013 0.0010573218
0002f0 10 19 b6 3d b9 42 86 be 93 b3 6e 3e ec cd db be
       0.08891499 -0.2622278 0.2331069 -0.42930543
000300 dc c3 ce 3d 65 4b 2a 3f c7 31 2a be 19 85 45 3d
       0.10095951 0.6652129 -0.16620551 0.048222635
000310 d7 e3 8a 3e c9 14 0b bf 52 09 97 3d 93 bb 9b 3e
       0.27126953 -0.5432859 0.073748246 0.30416545
000320 46 c0 0e bf bb 7c 94 be 71 a3 1b 3f fb 7c 02 bf
       -0.55762136 -0.29001412 0.60796267 -0.50971955
000330 be 7c e7 be fb 3e c3 bd 8a 54 ac 3e eb d6 c3 3c
       -0.45212358 -0.09533497 0.33658248 0.023906192
000340 cb 3c b2 bd fd 9b c2 3c 95 e1 96 bf 39 cc f0 be
       -0.087030016 0.023756022 -1.1787592 -0.4703081
000350 52 f4 cd bc f1 70 9a be 39 75 c9 bd 2a e5 90 3f
       -0.025140915 -0.30164292 -0.098368116 1.1319935
000360 37 51 07 3f f8 1e bc bd 3b 3c 00 be bb 1a 27 3e
       0.528583 -0.09185594 -0.12522976 0.1631879
000370 8e 57 a2 be c2 2e c1 3d ec a6 78 bd 39 42 a3 3e
       -0.31707424 0.094327465 -0.060706064 0.3188646
000380 6e 92 3b 3e 7c 7a fa 3d 2b e6 68 3f 5b e6 a4 3e
       0.18317577 0.12230393 0.9097621 0.32206997
000390 36 ae 08 be 7a 7d 08 3e 27 ba 4f 3d b0 e7 77 be
       -0.13347706 0.13329116 0.050714638 -0.24209476
0003a0 99 b1 a4 be 5f 46 1d bf 54 99 40 bc 13 24 04 bf
       -0.32166746 -0.614355 -0.011755306 -0.51617545
0003b0 8e b7 bd be 9f 70 b7 3e dc 34 37 be 92 98 58 3d
       -0.37054104 0.3582811 -0.17891258 0.052879877
0003c0 05 77 e8 3d 01 63 02 3e 87 46 84 bd 66 ea 60 3e
       0.11350826 0.1273308 -0.064587645 0.21964416
0003d0 7b 96 53 be 9b f0 37 bf 35 e4 dc 3d f3 90 3a be
       -0.20662872 -0.7185151 0.107857145 -0.18219356
0003e0 8d c9 e2 be 2a 14 d1 be c5 aa 69 3d a0 fa ce bd
       -0.44294396 -0.40835696 0.057047624 -0.10106397
0003f0 2a 00 9f 3f d5 1e 31 3f 2a 49 88 bd 23 3f 1a 3f
       1.2421925 0.6918767 -0.0665458 0.6025259

model.4.bias f4 [4]
000000 65 f2 c7 bd 57 26 d5 3e fa 08 43 3e 80 34 c6 3d
       -0.0976303 0.41630813 0.19046393 0.09677982
