p2_continuous-control/critic_local_final.pt (torch_old, 236493 bytes, 7 tensors)

model1.0.weight f4 [256, 33]
00000000: fcc3 7dbb 2620 a13c 19af 4dbb 531a 75bb
00000010: 88ac e23a 1990 243b aaf9 f8bb 8c97 d9b9
00000020: 8d50 9abb 17e3 67ba 844f 8a3b 7992 04bc
00000030: 07b1 d63a 0f1f 2fbb 26ce 9a3c c427 b6bb
00000040: fad2 acba 181c 763a eb76 aeba b3cd 0fbb
00000050: 55aa b83b 6173 263b 5e34 6fbb 7f71 e43b
00000060: c5a9 73ba 3be3 d3b9 6082 8bbb 38a7 db3b
00000070: 1f05 f4bb 7f05 0100 38a7 dbbb cf38 0200
00000080: ae36 86bb 1c54 54ba cd4f 183c 2ec1 823b
00000090: b5f9 04bb 7358 883a 3a26 a0ba 2f3b bbba
000000a0: 320c 1bba fa53 b4b9 b896 04ba 4328 a93a
000000b0: 34e4 d43a 3a42 b2b8 0e1c a03a 5592 183c
000000c0: 7597 083b 769f a3b8 7009 bc3a a0d4 163b
000000d0: 2594 a0b8 d183 c8ba f76d d23a 8a5f bdb9
000000e0: 44c3 fb38 4b08 1ebb 9a47 5b3b 93df 33bb
000000f0: d456 573b 99eb 17bb 9c32 0080 d456 57bb
00000100: 658d 0100 aa71 6eba b0af 8a3c 424d 713d
00000110: 219b 913b 6890 9d3b 8beb adbb 2827 8a3c
00000120: 2add 5bbc b02d 373c 5a4d 683c 73ee a93b
00000130: 9fbf 933c 10cf c63c bc0a babc f6de 193d
00000140: 58c9 113d de2f b439 d5b9 bc3c f87d 4cbb
00000150: bafd 59bc 6149 dcbb 7c34 4dbc a04e 463d
00000160: f1f3 903b b390 06bc 4095 913b 1b0c a2bc
00000170: 9e75 c1bd f609 603c 592e 57bd 0e80 0080
00000180: f609 60bc 87a5 0000 678e bc3d a460 e1bc
00000190: 2147 19bb ce33 633b 2003 b93c 2229 853c
000001a0: 5acf 57bb eb54 063a 2b8c b73c e5e4 febb
000001b0: be6f 98bb 06dc 9abc ae0c 52bd 166f dc3c
000001c0: bb22 b7bc b637 fe3c 7b6d 08bc 1ce9 d9bc
000001d0: 432d 8dbb 54e9 75bc 3196 3fbc 5e0b f0bc
000001e0: c67c 073d dfaf b83d 6153 f33c 5225 dd3c
000001f0: 5399 fabc 16f9 0a3d 8d6e 9eba 59fe 61bc
00000200: 5820 0080 8d6e 9e3a 3180 0100 da70 26bb
00000210: a510 693c df33 583d 1cb5 c5bc 8ac3 2abd
00000220: 01de bb3b 8435 043c 1e2e 2bbc 8707 ceba
00000230: bfe5 20b9 539b 0bbc 9df4 f33b e82c 983c
00000240: d893 bc3b a188 303c 6ec4 503d 2c8f 19bb
00000250: d83c c93a 6e59 01bc 503a 383c 1b16 663b
00000260: 0eb3 933a e2c6 21bc d8a0 9cbc 38df cf3c
00000270: a38e 82bb 352a 823d 2252 0eba 658d ac3c
00000280: cafc ce3d 40c7 0180 658d acbc 72aa 0280
00000290: 3292 8e3c aaa1 58bb 5d38 8a3c 58ce 343a
000002a0: e69a 1dbc a5f4 ceb9 1418 64ba ecb2 0e39
000002b0: cee6 b8b8 f953 d3b8 37a7 baba 7843 91bb
000002c0: ef8b 6abb 02e7 083b c3d1 e137 f475 563c
000002d0: f603 77bb 495c 0b39 4517 df39 353b 463a
000002e0: 4e99 0eb9 3478 1dba 361b 673a 9bbf 8c3b
000002f0: 1a61 87ba 19d4 f4bb daa1 dfba 96e8 c1ba
00000300: 5424 3a3c 5207 ba3b 7f37 0100 5424 3abc
00000310: b797 0280 82c3 0aba 648b b5bb 82eb 4d3c
00000320: d8f2 0f3c 029f 30bc a4a2 bcba e170 a53a
00000330: d637 903a 605b 8d3a 7bc9 dc3a 2bed 1dbb
00000340: d73c c7bb 5e7a 043a 5bb9 3c3b 4f4b 75ba
00000350: 9012 763c 404c bb39 f38e 52bb 4649 a83a
00000360: 0fe4 b53a 0bf0 69bb a53f ce3b 6cab 943b
00000370: 2ab0 c0b8 3347 933b 5391 56bc cfd8 aa38
00000380: 0657 fa3b d91a 273c 7f17 0bb9 a61e 0380
00000390: d91a 27bc de08 0100 b1f0 b4ba 9461 6bb9
000003a0: 21cc d33b 7103 803b da56 72bb cd84 42bb
000003b0: ab1b ca3b a2e2 91bb 7ed6 e6bb 3432 a73a
000003c0: e1a0 90ba 7ddf 233a 96db b5ba 12b6 023c
000003d0: 059b 5539 b075 293c 63c5 013b 3f72 263b
000003e0: 9abb b23b 3b70 8dbb f86d 7dbb be5f c43b
000003f0: 9c75 5e3b 5ac3 21bb 8a25 6939 497d 373b
-0.0038721552 0.01966865 -0.0031384884 -0.0037399724 0.001729385 0.0025110303 -0.0075981217 -0.00041502377
-0.0047093094 -0.00088457897 0.004220905 -0.008091562 0.0016379663 -0.0026721393 0.018897127 -0.0055589397
-0.0013185435 0.00093883416 -0.0013310587 -0.0021942675 0.0056355395 0.002539836 -0.003649972 0.0069715376
-0.0009295012 -0.00040414356 -0.0042574853 0.0067032836 -0.0074468995 9.3807e-41 -0.0067032836 2.0405e-40
-0.004095874 -0.00080996915 0.00929637 0.003990314 -0.0020290439 0.0010402336 -0.0012218424 -0.0014284606
-0.0005914598 -0.00034394843 -0.0005057859 0.0012905676 0.0016242326 -8.500037e-05 0.0012215392 0.009312232
0.0020842229 -7.8021476e-05 0.0014346074 0.0023014918 -7.6569886e-05 -0.0015298073 0.0016054501 -0.0003612007
0.00012004984 -0.002411383 0.0033459426 -0.0027446493 0.003285815 -0.0023181199 -1.8155e-41 -0.003285815
1.42558e-40 -0.0009095917 0.016929477 0.05891157 0.0044435416 0.0048084743 -0.00530762 0.016864374
-0.013419429 0.011180326 0.014178598 0.005185896 0.018035708 0.024268657 -0.022710197 0.037566148
0.035592407 0.0003436794 0.02303783 -0.0031203013 -0.013305122 -0.0067226146 -0.01252472 0.048414826
0.0044236113 -0.00821321 0.004442841 -0.019781163 -0.09446262 0.01367425 -0.052534435 -4.5937e-41
-0.01367425 5.938e-41 0.092068486 -0.027511902 -0.0023388343 0.003466833 0.022584498 0.016254965
-0.0032929988 0.0005124348 0.022405704 -0.007778751 -0.0046519926 -0.018903743 -0.051281624 0.026908439
-0.022355428 0.031032424 -0.008326883 -0.026600413 -0.004308374 -0.015009243 -0.011693523 -0.029302295
0.033077978 0.0901792 0.029702844 0.026995335 -0.030590689 0.033928953 -0.001208739 -0.013793551
-1.1603e-41 0.001208739 1.37822e-40 -0.0025396855 0.01422516 0.052783843 -0.024134211 -0.041690387
0.005733252 0.0080694 -0.010448007 -0.0015718796 -0.00015344376 -0.008520919 0.0074449317 0.0185761
0.005754929 0.010774762 0.05096858 -0.0023431284 0.0015353216 -0.007894857 0.0112443715 0.003510839
0.0011268572 -0.0098740775 -0.019119665 0.025374994 -0.003984289 0.063557066 -0.0005429109 0.021063516
0.101068094 -1.63313e-40 -0.021063516 -2.44815e-40 0.017403696 -0.0033055344 0.01687258 0.00068972027
-0.00961945 -0.00039473656 -0.00087010977 0.00013608829 -8.8167944e-05 -0.00010076905 -0.0014240508 -0.0044330917
-0.0035788973 0.0020889645 2.6919768e-05 0.013089646 -0.003769157 0.00013290452 0.00042551212 0.0007561923
-0.00013599286 -0.00060069864 0.00088160054 0.004295302 -0.0010328621 -0.007471573 -0.0017061785 -0.0014794047
0.0113612 0.005677142 1.11744e-40 -0.0113612 -2.38096e-40 -0.0005293415 -0.0055402983 0.0125683565
0.008785926 -0.010780098 -0.0014391732 0.0012622142 0.0011002969 0.0010784678 0.0016844714 -0.0024097662
-0.0060802507 0.00050536345 0.0028797004 -0.000935723 0.015019074 0.0003572423 -0.0032128661 0.001283922
0.0013877171 -0.0035696055 0.006294208 0.0045370366 -9.1880866e-05 0.0044945716 -0.013096171 8.1466154e-05
0.0076397685 0.010199272 -0.00013264826 -2.86501e-40 -0.010199272 9.5016e-41 -0.0013804642 -0.00022447697
0.006463543 0.0039066602 -0.0036978037 -0.0029681206 0.006167849 -0.0044520656 -0.0070446124 0.001275605
-0.0011034274 0.0006251259 -0.0013874646 0.007977979 0.00020371012 0.010343 0.001980149 0.0025397686
0.0054544928 -0.0043163574 -0.0038670283 0.0059928587 0.0033944612 -0.002468309 0.00022234596 0.002799826

model1.0.bias f4 [256]
00000000: 36a7 dbbb d756 57bb f209 60bc a26e 9e3a
00000010: 658d acbc 5424 3abc d91a 27bc b859 ffba
00000020: de31 3bbc af0f 36bb 5b3b 56bc 4035 dcbb
00000030: fe2e 49bd f9a7 fbb9 79a5 11ba c9c5 85bc
00000040: fa18 01bb 3703 bdba 974e 92ba 893c e6b9
00000050: ed7f 00bc 3fa1 c2bc 8075 08b9 18f7 4aba
00000060: db0a 3a3b e0c1 5aba 57f5 9fbb b704 a0bc
00000070: fd8f a1bc c215 55bb 84ac 76bb 160c 26ba
00000080: f531 00bb 2325 7dbd cf4c 4bbd 38cc 2a3b
00000090: 2081 dc3b ee3b fb3b eb1f 99bb b110 48bd
000000a0: 1c54 aabb 61fc 48bb 68fc e1bc e797 70b9
000000b0: bea8 933d 39d7 10ba f266 0ebc 80cd 93bb
000000c0: a330 47bb ed05 40bc 6a70 39b9 1472 b8ba
000000d0: 5190 e7bb 317c aaba add1 d3bc 0f85 39bb
000000e0: 52ec b0bc 5d15 fdb9 2bd1 a4b8 81eb e4b9
000000f0: d83e 75b9 a2c4 98bb e4fa eeba b693 0039
00000100: 309e daba 783b 8dba 3ecd b0ba 3ee7 3abc
00000110: 0768 33ba dca7 dfba 9c4a c2ba b4f8 5cbc
00000120: 6f78 b1b9 3a43 b0b9 32df 04bd 6907 92bc
00000130: 1248 dfbb 998b 3aba bbb2 f3ba 8252 d5bb
00000140: 0913 0ebb d4d0 243b b7ad 64bc cf37 edba
00000150: 043d a2bb 72b3 fab9 f49f 4fbb b6fc 16b9
00000160: 5fee b2bc 60ba 19b9 2e53 bcbb 6962 9abc
00000170: 0664 a3b9 3256 00bd b84e ddbc 0108 2ebb
00000180: 010c 2ebc f191 56b9 50b7 9eb9 7a49 a23b
00000190: a564 b0bb 089d c5ba e8af 9ab9 d7e9 51b9
000001a0: e10f d63b ad13 fabc 8c26 79ba 77c1 8fba
000001b0: 6a4d 87bb 6c43 4dba 7d43 febb dc42 86ba
000001c0: c9f8 34ba 16ce 04ba 29c8 9cbc a663 2aba
000001d0: 4dac 70bb b5de 873c 0356 18ba c6b2 7ebb
000001e0: 02b5 77ba e138 ebb9 3d07 57bb 4a60 02bd
000001f0: ac69 abbb 69d6 6d3a efde 6dbd 9f98 65bc
00000200: cb8c 9bb9 cd3b 3fba f15d ddbc 38b1 cbb9
00000210: 9469 43bc 6832 c0ba e3e2 ce3c 7aec 00ba
00000220: 8342 54ba 9019 dbba 8186 8cbc 479d cfba
00000230: 6f62 9dbb fa0d d23b 2918 fbb9 7c22 1ebb
00000240: 4ba2 b1ba d897 77bb a51a 98bc 0414 01bd
00000250: 27e8 10bb 237d 89ba a32a 10bc 7e9e 50bc
00000260: 68e0 1abb e37d 12ba 4aa3 07bb 7f4f ecb9
00000270: de21 11bb 006c 73ba bb95 caba 11e5 cd3d
00000280: 4bf5 c3ba 6186 6bb9 f60d 7fba 52b5 4abb
00000290: d324 98ba 33bd 5cbb dd1e a3b9 e868 4abb
000002a0: ccaa 20ba 2e8a a6ba 5790 b4b9 3ac0 0ebb
000002b0: 61c8 64bb 7184 68bd 4348 b9ba 25a6 25bb
000002c0: 4031 09ba 10d8 bfbc 798f a0bb 9d74 e43b
000002d0: e8aa 04bb a32e 73ba e7fb 52ba e37d 863c
000002e0: 2522 90ba ba46 32bc 8401 b2bb b5cf 88bc
000002f0: 2082 9cb9 928b 50bc 17f4 13bc b774 6bb8
00000300: 2f56 7fbc adea f4ba 9e23 3fbb 2563 beb9
00000310: 50c1 babc d980 beb9 96f2 5ebb 9767 b5bb
00000320: c25c 65bc 1294 41bc fb30 06bb 449e 9fbd
00000330: dcd4 45bc 21ca cabb cbf0 5dba 756a 97bc
00000340: a61c 75ba 19dd 77bc 0d9e 70bb c1e3 c6bd
00000350: 815f 81bb f22c a8bb e9d9 3639 8f88 78b9
00000360: f52e ccb9 21fb 6abb 16a5 67bc 8e92 a6ba
00000370: f05c d8b9 1bc9 66ba 4fda 32bd 9efe c6ba
00000380: e206 27ba b8a6 69bc 49a8 e0bb 3798 47ba
00000390: 6aa8 04bc eb2d 90bd 8d2e 9dbb 2027 c9bb
000003a0: 0539 2dbc f26b c0b9 e877 5bbb b789 4cb9
000003b0: 7b81 82bb 3255 05bb a4b8 33bc 9627 38bd
000003c0: be59 a3bd adbb 01bc eca8 69bc 9ac1 4cba
000003d0: 94af b7b9 384b dcba 0216 963c 4fce c8ba
000003e0: e9d1 88bd e018 a1bc e00b 12bc 433a 1fbb
000003f0: d763 7dbc cbbd 57ba 97fe 7aba afd4 0fbd
-0.0067032827 -0.0032858157 -0.013674246 0.0012087415 -0.021063516 -0.0113612 -0.010199272 -0.0019481694
-0.0114254635 -0.0027780344 -0.013075675 -0.006720215 -0.04911708 -0.000479996 -0.00055559684 -0.016329663
-0.0019698725 -0.0014420514 -0.0011162338 -0.0004391412 -0.007843 -0.023758529 -0.00013013743 -0.00077425083
0.0028387818 -0.00083449297 -0.0048815417 -0.019533498 -0.01972198 -0.003251419 -0.0037639448 -0.00063341984
-0.0019561027 -0.061802994 -0.049633797 0.0026061665 0.00672926 0.0076670563 -0.0046729944 -0.048844043
-0.005198015 -0.0030668008 -0.027586177 -0.00022944772 0.072099194 -0.0005525235 -0.008691536 -0.0045105815
-0.003039398 -0.011720163 -0.00017684852 -0.0014072084 -0.0070667644 -0.0013006983 -0.025856817 -0.002830807
-0.021597061 -0.00048271837 -7.85909e-05 -0.00043663013 -0.00023388432 -0.0046621123 -0.001823273 0.00012262058
-0.0016679224 -0.0010775169 -0.0013488901 -0.0114076715 -0.00068438094 -0.0017063576 -0.0014823261 -0.01348703
-0.000338498 -0.00033619424 -0.032439418 -0.017825799 -0.0068140114 -0.00071161386 -0.0018592695 -0.00651008
-0.0021678826 0.0025148885 -0.0139574325 -0.0018098297 -0.0049511213 -0.00047817413 -0.0031681033 -0.00014399257
-0.02184218 -0.00014660647 -0.0057472205 -0.018845754 -0.00031164306 -0.031332202 -0.027015075 -0.0026555064
-0.010622979 -0.00020462998 -0.00030272687 0.0049526067 -0.0053830915 -0.0015076706 -0.0002950423 -0.00020018905
0.0065326546 -0.03052696 -0.000950434 -0.0010967691 -0.0041291015 -0.0007830176 -0.00775951 -0.0010243314
-0.0006903527 -0.00050661096 -0.019138413 -0.0006499834 -0.0036723793 0.016585687 -0.00058111566 -0.0038863881
-0.00094492745 -0.0004486507 -0.003281071 -0.03183011 -0.005231103 0.0009072782 -0.058073934 -0.0140134385
-0.00029668803 -0.0007294983 -0.027022334 -0.00038851216 -0.011927027 -0.001466346 0.025254672 -0.000491805
-0.0008097069 -0.0016715992 -0.01715398 -0.0015839719 -0.004802994 0.0064103575 -0.0004789245 -0.002412944
-0.0013552395 -0.0037779715 -0.018567393 -0.03151323 -0.002211103 -0.0010489564 -0.008799228 -0.0127331
-0.0023632292 -0.00055882166 -0.0020696693 -0.00045072657 -0.002214543 -0.00092858076 -0.0015456 0.100534566
-0.0014950422 -0.00022461406 -0.00097295584 -0.003093083 -0.0011607654 -0.0033682107 -0.00031112778 -0.0030885283
-0.00061289663 -0.0012705976 -0.00034439817 -0.0021782056 -0.0034909474 -0.05676693 -0.0014135916 -0.0025276032
-0.0005233474 -0.023418456 -0.004899916 0.006971909 -0.002024347 -0.0009276664 -0.00080484006 0.01641745
-0.0010996504 -0.01088112 -0.0054323096 -0.016700605 -0.0002985159 -0.012728589 -0.0090303635 -5.6137065e-05
-0.015584513 -0.0018685661 -0.0029165517 -0.00036313492 -0.022797257 -0.00036335623 -0.0034019104 -0.0055360305
-0.013999166 -0.011815088 -0.0020475972 -0.07793859 -0.012074675 -0.0061886464 -0.0008466362 -0.01848338
-0.0009350277 -0.015128397 -0.00367153 -0.09711409 -0.0039481525 -0.005132311 0.0001743805 -0.00023701995
-0.00038944898 -0.003585525 -0.014138481 -0.0012708472 -0.00041267974 -0.0008803771 -0.043665227 -0.0015182083
-0.000637157 -0.01426094 -0.0068559987 -0.00076139293 -0.008096794 -0.07040008 -0.004796809 -0.0061386973
-0.010572677 -0.0003670152 -0.0033488218 -0.00019506259 -0.0039827204 -0.002034497 -0.010969315 -0.044959627
-0.07976101 -0.007918281 -0.0142614655 -0.00078108313 -0.00035035296 -0.0016807085 0.018321041 -0.0015320274
-0.06680662 -0.019665182 -0.008913964 -0.0024296201 -0.015465698 -0.00082298805 -0.000957468 -0.03511494

model2.0.weight f4 [128, 260]
00000000: 584f 691f 943b 94ac 0893 5e34 6538 f3b4
00000010: 4f1d 5bb6 7373 c320 5c49 cd32 406f 122b
00000020: 3c02 592e b291 a1ab e0d8 992f b432 2eb8
00000030: 49da 02b3 ba91 87ac 1338 432a 3a06 a82b
00000040: 94cb 2ba1 1e35 1fac d2b0 662d 5caf 9aac
00000050: 2a08 b2b1 0f4c 5e32 654f fc28 2c4b 68b1
00000060: 49b7 6b35 ed67 b22b 95db 5cb3 22af 4eb4
00000070: f02d 1cb4 8bb3 d829 e963 39b9 9479 46af
00000080: 3ae5 882c f416 b7b4 5d4d 4534 e4a1 acb3
00000090: 0a65 29b9 954f fcb3 6f61 cfaf 2dc1 7ab3
000000a0: 3e98 f8ac 1ad2 d9a9 7247 f8b2 b4f9 8b2d
000000b0: 6b00 4dba 2882 7aad 8904 82b1 4d4d 3ead
000000c0: c674 c332 af5a 45b4 87cd dc2c 53b8 7c31
000000d0: 9c36 6bb0 9540 4428 cd90 7bb9 24fa 712d
000000e0: 8936 9b34 a611 33ad 2af2 3e2b 1700 3c2d
000000f0: b07e e42b be53 55b5 f988 40ad 93b6 88ac
00000100: 9abb 94a2 becb 8bb3 bd51 5bac dabd 2fb0
00000110: 81e4 f931 cb76 8c2d 79a8 2bab 37d6 5735
00000120: 18ad 93a9 ba60 4330 c662 1cb2 4b9d 8835
00000130: 926e 0c35 a357 a0ad 3bfc b8ad 3705 28ac
00000140: 349c ab22 9a5b fdb4 5ccc eab7 3966 bc30
00000150: 0107 081f 530c 7e2d 18f0 0834 884c 132a
00000160: 3932 6f35 8f5e 062d db69 0c30 e03c e1b2
00000170: b4dd e42d 8754 c738 05f2 cfb7 6851 5235
00000180: 8d1c 8aad 099a d32c 047e 512c 07df 47ba
00000190: a526 962a acea fab0 53ab 2a2d 7476 28a9
000001a0: 1604 e4b4 6878 9ab7 58a7 18ac cd0d 0cac
000001b0: 42a9 f2ac 1cc8 b82b 43c1 2b20 dc02 97ac
000001c0: f523 74aa fb2e e1ae b7a7 40b3 ff89 07b0
000001d0: 5d5b b5b6 75de 3030 7fe5 91b0 baed 26ac
000001e0: 6e89 0b2d 52bd eeab a1b6 7f2d 8533 8338
000001f0: 4ac3 8fb4 403e aeb4 f9c2 8bb4 6ab9 9734
00000200: a26c ee2d 12bf 14b1 c046 c8b2 fb2b 512c
00000210: 0c2f 0cae 0a8f c3ab 4895 5bb5 0b59 292d
00000220: b8ab 0fab 597f 502b a8f4 34b4 f138 ed2a
00000230: 0e3d f3ac 2727 d634 6ff5 8028 a8ff 332d
00000240: 4926 74ab fa65 3e2d 6fe3 1f2f 7caf 6bb4
00000250: 1806 f022 060f b12c 5aaa 4436 8e8b f8b3
00000260: bc44 6d2a e469 c42c de9a 9dad d908 42a9
00000270: 608a 9aac dabe 03ab bed1 902d 1454 18b9
00000280: 2137 4a2c 73f1 7e2b 7e81 e72e 1350 adb4
00000290: 9916 4fac 0e9c dc31 2ac1 cd2c 29bb eeac
000002a0: 3d82 bb28 9423 3133 8f14 4629 406f 892a
000002b0: e235 a6b3 33e0 a334 80fc af2a 47a0 792d
000002c0: 8dfc ada9 9cf2 85b5 0db5 68b2 99a6 c933
000002d0: b7e2 e12c 5a23 ddab 45e3 182d fa9e 1635
000002e0: e644 4f2c 71b9 1235 8aea 93ab aa1e bdb1
000002f0: f89b 6329 836a ab32 8037 99ae 352a 8f28
00000300: 3614 2e38 9571 94b0 b5d9 a430 457b ffaf
00000310: ad46 0bb4 1f97 3b29 c85d 9a2d da21 cdb2
00000320: 3496 67a6 fb27 d5ac 71cb 962d f657 1e35
00000330: 2a45 91ac d38b cb32 548c 082d 1fe8 68a7
00000340: 7842 fd2c d8ab 0b35 6258 f0ac e578 8cb4
00000350: 1a3c 5cb9 7037 1c33 477d 35b5 6e40 c1a9
00000360: 6984 2f2d 8504 bba8 b10e 1a35 c786 9bac
00000370: c05f 64ac 2142 6c2d 43cb 4932 d5a0 2e2d
00000380: b49f 44ab 2a63 4aae 4410 44b2 abbf 5da9
00000390: b25d 8e31 9cc8 87b3 ede4 db32 df97 f1b7
000003a0: 87d9 1eb1 1f77 c72c d8ae 462b 07f8 28a1
000003b0: 4cfa 83b0 6af0 0bae d012 bba9 53ed a4b3
000003c0: 2a06 8233 0efb 8aa9 6640 8634 4837 e72b
000003d0: eae8 8f2b a176 8b2c dec9 04b3 a300 842d
000003e0: 9f97 03b5 cdfc 8fb3 5e8d bfad ffd4 c72c
000003f0: 93a0 6bb4 02c8 3aac 357c bcae 5ec6 4c35
4.94053e-20 -4.2130275e-12 2.0728851e-07 -4.530331e-07 -3.2650603e-06 3.3110683e-19 2.3898501e-08 5.202401e-13
4.9342072e-11 -1.1480177e-12 2.7984637e-10 -4.1532054e-05 -3.0466513e-08 -3.8531097e-12 1.7338934e-13 1.1938846e-12
-5.8206487e-19 -2.2624745e-12 1.3113248e-11 -4.396412e-12 -5.18141e-09 1.29393944e-08 2.8012052e-14 -3.3803174e-09
8.7811037e-07 1.2676506e-12 -5.142245e-08 -1.9248958e-07 -1.4545344e-07 9.623473e-14 -0.00017680194 -1.8051188e-10
3.8908017e-12 -3.4103107e-07 1.83752e-07 -8.038822e-08 -0.00016154736 -1.174914e-07 -3.772231e-10 -5.8383353e-08
-7.0654862e-12 -9.673183e-14 -2.890349e-08 1.5913361e-11 -0.00078201917 -1.4239755e-11 -3.7840135e-09 -1.0817414e-11
2.275409e-08 -1.8380045e-07 6.275594e-12 3.6775603e-09 -8.5570107e-10 1.089419e-14 -0.00023991168 1.3754806e-11
2.891068e-07 -1.0178891e-11 6.783763e-13 1.0686583e-11 1.6235537e-12 -7.9470544e-07 -1.09443505e-11 -3.8856223e-12
-4.031411e-18 -6.5097524e-08 -3.1167146e-12 -6.3934424e-10 7.2728317e-09 1.5968912e-11 -6.0985207e-13 8.0405465e-07
-6.5581384e-14 7.1078043e-10 -9.102854e-09 1.0178568e-06 5.2314965e-07 -1.8228813e-11 -2.1030391e-11 -2.387713e-12
4.651503e-18 -4.719157e-07 -2.7990136e-05 1.3707854e-09 2.8804914e-20 1.4440965e-11 1.2753333e-07 1.3082775e-13
8.910752e-07 7.638014e-12 5.1082133e-10 -2.622113e-08 2.6019055e-11 9.504804e-05 -2.4789022e-05 7.834956e-07
-1.5701463e-11 6.014082e-12 2.977064e-12 -0.0007624481 2.6672168e-13 -1.8256592e-09 9.701423e-12 -3.7406235e-14
-4.2471282e-07 -1.84143e-05 -2.1693394e-12 -1.9902858e-12 -6.896845e-12 1.3129528e-12 1.4548208e-19 -4.2919956e-12
-2.1684029e-13 -1.0240161e-10 -4.485602e-08 -4.930882e-10 -5.4048564e-06 6.434456e-10 -1.0615365e-09 -2.3721984e-12
7.931751e-12 -1.6963464e-12 1.4535624e-11 6.256163e-05 -2.6777917e-07 -3.2455318e-07 -2.603263e-07 2.8260848e-07
2.710571e-11 -2.1645445e-09 -2.3315238e-08 2.97251e-12 -3.18741e-11 -1.3895285e-12 -8.180109e-07 9.626309e-12
-5.1042113e-13 7.4073175e-13 -1.6852812e-07 4.2139168e-13 -6.913254e-12 3.9889093e-07 1.4317295e-14 1.0231739e-11
-8.6739345e-13 1.0822893e-11 1.4541766e-10 -2.1949921e-07 6.5058582e-18 5.0323105e-12 2.9305434e-06 -1.1573785e-07
2.1073676e-13 5.5824113e-12 -1.7917608e-11 -4.3084327e-14 -4.392306e-12 -4.680541e-13 1.6464049e-11 -0.00014527171
2.873653e-12 9.0574006e-13 1.0527666e-10 -3.2282023e-07 -2.9429013e-12 6.420584e-09 5.847896e-12 -6.785146e-12
2.0817652e-14 4.1243382e-08 4.3982664e-14 2.4413284e-13 -7.7397786e-08 3.0524242e-07 3.1261452e-13 1.41896e-11
-7.726554e-14 -9.979881e-07 -1.35453435e-08 9.390096e-08 6.420055e-12 -1.5712806e-12 8.690664e-12 5.6110696e-07
2.9454716e-12 5.465909e-07 -1.0510076e-12 -5.50411e-09 5.0539407e-14 1.9955456e-08 -6.967493e-11 1.5894494e-14
4.1503656e-05 -1.0800699e-09 1.1994447e-09 -4.6471818e-10 -1.2971095e-07 4.1653418e-14 1.754942e-11 -2.3880535e-08
-8.034779e-16 -6.058263e-12 1.7143372e-11 5.8987587e-07 -4.1288266e-12 2.3695895e-08 7.761864e-12 -3.23223e-15
7.198072e-12 5.20316e-07 -6.8310227e-12 -2.6164994e-07 -0.00021003225 3.6372e-08 -6.7610057e-07 -8.5820985e-14
9.976999e-12 -2.076313e-14 5.739085e-07 -4.4203283e-12 -3.24539e-12 1.342973e-11 1.1745956e-08 9.926467e-12
-6.985482e-13 -4.6017558e-11 -1.14124e-08 -4.9238103e-14 4.143396e-09 -6.322918e-08 2.5599059e-08 -2.880016e-05
-2.3115676e-09 5.6691453e-12 7.0586375e-13 -5.7248876e-19 -9.602643e-10 -3.181847e-11 -8.307732e-14 -7.680014e-08
6.054718e-08 -6.171982e-14 2.50063e-07 1.6428881e-12 1.0225408e-12 3.963788e-12 -3.0917242e-08 1.5006945e-11
-4.902194e-07 -6.7049406e-08 -2.1776966e-11 5.6795675e-12 -2.1944497e-07 -2.6543216e-12 -8.571314e-11 7.6284584e-07

model2.0.bias f4 [128]
00000000: cf04 72bb 5300 d890 6c79 b4b5 96dc 11ae
00000010: e405 ce95 f15e 7596 1c90 7493 e53a 4aba
00000020: 26fb b9bb 7dba b8ba 89c1 a6ad 15ec 24a8
00000030: d39d a2a7 c111 e1ba 4690 80bb 00df 148e
00000040: 8afd 24bb 37d5 1cbc a232 00bb 5a34 6ebb
00000050: 1056 dcbc 42ee c9b7 55b3 83bb 9189 5099
00000060: 5bea 11bc 5e19 84b1 29b1 889a 54fa 83b6
00000070: 29a9 aeb9 cec0 c1b2 b96e 08bc 1e0d 3cbc
00000080: aae4 0a92 9299 fabb 4a95 02bc 8a05 56b5
00000090: ed50 12bb 96ab bdb0 b226 aab9 e2e5 dbb2
000000a0: 911b bbaa 45ae cfb5 e729 8ebd c342 0ab5
000000b0: ba67 12a5 2c8a 95b8 22bd 0ab5 9f5a f53d
000000c0: 66b6 98b8 b80e a9b8 881a beb5 32f5 a2b4
000000d0: b4bd edbb 32d4 a1b5 0ff4 4fa1 e48c e5b8
000000e0: 7db4 868c 6689 37b8 a5fa b2a0 480a cead
000000f0: 37e7 0fbd 57f2 edba f1a8 02bb fe00 4dbc
00000100: a5f1 3c3e 1b84 569d 59f8 019f 2508 1ea7
00000110: baf8 64b9 450d 023e 6e7e 1387 03f6 8ead
00000120: 7345 fbbc d592 47bd 6b68 8f98 249a 03bb
00000130: 21df 8bbd 0670 0cb7 f965 6a3e 4395 35a0
00000140: 6f49 bdab 848f dfb7 542f 2994 0318 b4bb
00000150: 2525 c19b a127 9bbb 4a90 98bb edb0 fabb
00000160: 423d dbbb 8a79 e5bc c226 b0ba 37d7 bbb7
00000170: 2b10 a1bc 8444 14a3 9f0c fcb3 2181 6a8b
00000180: a92b 67a4 4145 f23d 5ed2 aeb9 3605 15bc
00000190: f571 49b8 476d 85a8 762e 853d 4ed7 21ac
000001a0: cead 99b5 fba5 26b6 40bd b3ae 832b a8ac
000001b0: 07bf 0bb5 1e53 debc 40d1 45b9 298e 5ab6
000001c0: 5fd5 63b7 0b0a e8bb 302a c2bc 6c10 1bbd
000001d0: ca5d 0ab5 17ff 78b8 09aa e73c 2f1c 2aab
000001e0: bda9 433c 4bbc 0bb7 e00b 95ba dca3 703e
000001f0: ea38 e5b3 777e 19ba 5e87 c5aa 76bd aba5
-0.0036929136 -8.519748e-29 -1.3446383e-06 -3.3165103e-11 -8.321203e-26 -1.98209e-25 -3.0868181e-27 -0.00077144644
-0.005675691 -0.0014093664 -1.8957962e-11 -9.155021e-15 -4.5135146e-15 -0.0017171429 -0.0039234487 -1.8349779e-30
-0.0025175535 -0.009572319 -0.001956143 -0.0036347122 -0.026896507 -2.4072015e-05 -0.004019181 -1.0781129e-23
-0.008905972 -3.8445895e-09 -5.65345e-23 -3.9332463e-06 -0.000333139 -2.2555835e-08 -0.00832718 -0.011477737
-4.382697e-28 -0.0076477015 -0.007970164 -7.972927e-07 -0.0022326068 -1.3800328e-09 -0.00032453757 -2.5599494e-08
-3.3237e-13 -1.5473421e-06 -0.06941586 -5.150616e-07 -1.2698625e-16 -7.13061e-05 -5.168423e-07 0.11980175
-7.281899e-05 -8.0612896e-05 -1.4163825e-06 -3.0353254e-07 -0.0072552804 -1.2057192e-06 -7.0457337e-19 -0.00010945814
-2.0754596e-31 -4.3758562e-05 -3.0320236e-19 -2.3424054e-11 -0.035132613 -0.0018153888 -0.0019937123 -0.012512444
0.18451555 -2.8390961e-21 -2.752224e-20 -2.193132e-15 -0.00021836432 0.12700374 -1.1096205e-34 -1.6252782e-11
-0.030672764 -0.048724014 -3.707007e-24 -0.0020080889 -0.06829668 -8.370733e-06 0.22890462 -1.5380683e-19
-1.344964e-12 -2.6650501e-05 -8.541653e-27 -0.0054960265 -3.1953176e-22 -0.0047349487 -0.0046558725 -0.0076504857
-0.006690652 -0.028012056 -0.0013439285 -2.2392354e-05 -0.01966103 -8.037605e-18 -1.173696e-07 -4.5163906e-32
-5.0127122e-17 0.118296154 -0.00033344602 -0.009095481 -4.8028265e-05 -1.4813358e-14 0.06503002 -2.2998994e-12
-1.1449972e-06 -2.483254e-06 -8.173595e-11 -4.779678e-12 -5.2059517e-07 -0.027139243 -0.00018865336 -3.256728e-06
-1.3579934e-05 -0.0070812753 -0.023701757 -0.037857458 -5.154549e-07 -5.936538e-05 0.028279321 -6.0435245e-13
0.011942324 -8.328886e-06 -0.0011371337 0.23500007 -1.0673996e-07 -0.00058553315 -3.508816e-13 -2.9792155e-16

model2.2.weight f4 [128, 128]
00000000: ef4e 05b7 4f67 0080 d526 0100 b3b2 0000
00000010: 5975 8894 4a2c 0000 c40a 0000 c788 9fb6
00000020: 8fbd feb7 c9c3 ca37 331b d12c bc8e 0080
00000030: 7a4e 0000 560b b52e 9a2e dbb5 59df 0080
00000040: 2392 4ab2 c639 353b bce6 bd38 3be1 c3b7
00000050: 49a1 5dbc 2df7 c3ac 44ea 2a2d b6de 0080
00000060: 9db7 69ba 799c 6b88 2bf1 0080 b54d 139c
00000070: 5655 059d 79a6 0000 106d 27b6 372b 81bb
00000080: 100b 0d11 2197 273a f588 20bb d59c a529
00000090: 2dc0 9531 bb92 0080 382f 22a2 1154 9d1d
000000a0: 1dc6 0080 7ce8 5096 4034 aabd ce04 3c90
000000b0: 7b82 0000 7934 9128 734e 231d 848a 993d
000000c0: 2457 7126 e803 8235 1a21 ee12 c309 a29b
000000d0: c366 0d3a 191b 1ab2 a81b 0000 0abf 0d1b
000000e0: 63be 0000 394d 0f96 5d2c 0080 ab80 0000
000000f0: 04cb b5bc 92ba 1c37 b15d bc37 63a0 cabc
00000100: c39b a23d d36f 0000 911f 0000 2994 0000
00000110: 93da 072a 1de0 633d 7033 0080 4883 0000
00000120: a96a 19bd 5cd6 d9bc f48a 9916 4e78 3d34
00000130: e2b8 adbd 3938 e1b5 8a05 ab3d ccaa 0000
00000140: 66c0 0000 c3d3 a532 faf7 a093 6b71 9bb3
00000150: 15d1 0080 27f1 6037 54ad 4db5 fb25 43bd
00000160: cd0f dc38 0f27 c5bc 367e 2536 5b28 1619
00000170: 2f95 193d 8c60 08a1 5651 0000 cb6e 0000
00000180: 883a 460c 75fe 403d 2d04 be16 89a6 29ba
00000190: 89e2 da2a 8f0b 0000 9446 153d 2ec7 7912
000001a0: 10ee 531f 73f5 66a0 5672 0080 6392 0000
000001b0: 82ab 0000 afc8 643d 7dac d82a 2385 9521
000001c0: 76ee 140f 9f0f 29bd b6ed 8ebd c876 80bd
000001d0: 1428 449d d26f ea2f a891 db3c 5944 222a
000001e0: e103 ba3c a0de a819 205d fe3c 3528 083e
000001f0: 6ae8 3f9c 8f46 9c2e 77bc 0000 c479 0000
00000200: 3e16 31b7 6cd1 0000 5a0c 1b80 1c5b 0080
00000210: c304 8e94 2e7d 0080 51b5 0000 5c53 9bb6
00000220: 6796 01b8 d4c3 d637 7093 d22c d743 0080
00000230: 6dc1 0080 289c 092f e7e6 00b6 e34f 0080
00000240: 612f 62b2 cbc9 393b 86dd c938 b108 dfb7
00000250: 5520 62bc 76af 21ad aaa9 f72d aee4 0080
00000260: 6de3 72ba 254f f28a e284 0080 e6b1 1c9d
00000270: 7376 1e9e e400 0080 d723 54b6 c9ea 81bb
00000280: 331a 0911 b850 2d3a 41ab 25bb 13e9 112a
00000290: 410f c931 d31a 0080 d574 e9a2 e318 481e
000002a0: f797 0000 5d26 5697 efe8 adbd b03d 6b91
000002b0: f771 0080 1849 f128 d2ae e01d e74a 9c3d
000002c0: a762 10a3 0036 8835 2259 0a14 b186 979c
000002d0: 48a4 103a 89aa 5cb2 3825 0000 3f6d 7e1b
000002e0: aebc 0000 6222 6d96 abb8 0000 b406 0000
000002f0: 32c9 b9bc 332d 2f37 942e db37 7edb cebc
00000300: 8328 a63d 8675 0000 9182 0080 4d83 0080
00000310: 440c 822a 10f0 693d 4751 0080 8cbf 0080
00000320: f1b1 1cbd 1c9e debc eb3b 9c16 1f94 6f34
00000330: 1d6f b1bd f1a4 e1b5 61d2 ae3d 1c77 0080
00000340: cb3d 0080 8ee7 da32 1649 a093 c6b1 b8b3
00000350: 1517 0000 b3f1 7f37 ffbc 6ab5 3324 47bd
00000360: dd90 e438 7d41 c9bc 7460 3b36 1fee fa19
00000370: d9e2 1c3d 3581 80a0 5397 0080 512d 0000
00000380: 1318 4d8c a3ab 463d cb60 2a17 66a5 32ba
00000390: 2edd 882b ab3d 0080 500d 183d 4439 6d91
000003a0: 6ccf 0620 71ca 01a1 9492 0000 cd3e 0000
000003b0: 3748 0080 cf75 693d 1cd0 372b 4df0 2622
000003c0: 2307 d90f 109c 2cbd 7eda 91bd 931e 83bd
000003d0: b71e 099e 8692 1e30 0510 e03c 408c 232a
000003e0: 95b5 bd3c e99f 7818 69d9 013d 16fd 0a3e
000003f0: 049f 0d9d 725e eb2e 3589 0080 6ebb 0080
-7.945796e-06 -3.706e-41 1.05766e-40 6.4105e-41 -1.3778776e-26 1.5888e-41 3.862e-42 -4.7544922e-06
-3.036743e-05 2.4171446e-05 5.943157e-12 -5.1203e-41 2.8152e-41 8.232941e-11 -1.6330334e-06 -8.0122e-41
-1.1791175e-08 0.0027652844 9.0552e-05 -2.3350693e-05 -0.013527223 -5.5696754e-12 9.715399e-12 -7.9894e-41
-0.0008915605 -7.0901673e-34 -8.6515e-41 -4.8738654e-22 -1.7646521e-21 5.9719e-41 -2.4948422e-06 -0.003941919
1.1126348e-28 0.00063930644 -0.0024495695 7.354678e-14 4.3583186e-09 -5.2637e-41 -2.1980091e-18 4.1644477e-21
-7.107e-41 -1.6875465e-25 -0.08310747 -3.7080164e-29 4.6808e-41 1.612099e-14 2.1613428e-21 0.07497123
8.373177e-16 9.686892e-07 1.5028072e-27 -2.680696e-22 0.0005394036 -8.970141e-09 9.921e-42 1.1724975e-22
6.8298e-41 -1.1575815e-25 -1.5915e-41 4.6157e-41 -0.022191532 9.341764e-06 2.2454975e-05 -0.024734681
0.079398654 4.0115e-41 1.1324e-41 5.315e-41 1.2066242e-13 0.055633653 -1.8452e-41 4.7095e-41
-0.037455235 -0.026591472 2.4806175e-25 1.7645763e-07 -0.08482529 -1.6780169e-06 0.08350666 6.127e-41
6.902e-41 1.9304826e-08 -4.0634202e-27 -7.2383806e-08 -7.5005e-41 1.3407588e-05 -7.6620677e-07 -0.047643643
0.000104933606 -0.024066476 2.466038e-06 7.762968e-24 0.03749579 -4.620637e-19 2.9178e-41 3.9745e-41
1.5270979e-31 0.04711767 3.069879e-25 -0.0006471654 3.888177e-13 4.146e-42 0.03644426 7.8816054e-28
4.487791e-20 -1.956297e-19 -4.1016e-41 5.2514e-41 6.1525e-41 0.05585545 3.8488996e-13 1.0131874e-18
7.342889e-30 -0.041274663 -0.069789335 -0.06272656 -2.5961104e-21 4.2643805e-10 0.026802853 1.4412203e-13
0.022706928 1.746071e-23 0.031050265 0.13296588 -6.3496987e-22 7.1065924e-11 6.7608e-41 4.3681e-41
-1.0555201e-05 7.5126e-41 -2.48399e-39 -3.2684e-41 -1.4340214e-26 -4.4906e-41 6.5044e-41 -4.6290643e-06
-3.089607e-05 2.5601978e-05 5.984928e-12 -2.4336e-41 -6.9388e-41 1.2515555e-10 -1.920789e-06 -2.8658e-41
-1.3165704e-08 0.0028349038 9.625689e-05 -2.6587719e-05 -0.013801654 -9.190751e-12 2.8155995e-11 -8.2035e-41
-0.00092654565 -2.3333523e-32 -4.767e-41 -2.07384e-21 -8.388945e-21 -3.2e-43 -3.1611323e-06 -0.003964756
1.0815468e-28 0.00066114543 -0.0025279077 1.2959451e-13 5.851604e-09 -9.623e-42 -6.3278477e-18 1.0593058e-20
5.4515e-41 -6.919555e-25 -0.08491694 -1.855724e-28 -4.0883e-41 2.6788074e-14 5.9473066e-21 0.07631474
-7.827146e-18 1.0148506e-06 6.984798e-27 -1.0027159e-21 0.0005517644 -1.2844461e-08 1.3352e-41 2.1045687e-22
6.7686e-41 -1.9155557e-25 6.6246e-41 2.405e-42 -0.022678945 1.0441337e-05 2.6128524e-05 -0.025251146
0.08113196 4.216e-41 -4.6838e-41 -4.7102e-41 2.310115e-13 0.057113707 -2.9157e-41 -6.8714e-41
-0.038255636 -0.027175002 2.5240973e-25 2.2312496e-07 -0.08663771 -1.6811811e-06 0.0853622 -4.2728e-41
-2.2167e-41 2.5483839e-08 -4.0461747e-27 -8.6005045e-08 8.28e-42 1.5255459e-05 -8.744682e-07 -0.048618507
0.0001089887 -0.02456736 2.7921315e-06 2.594557e-23 0.038302276 -2.1769545e-19 -5.4285e-41 1.6256e-41
-1.579987e-31 0.04850353 5.505213e-25 -0.00068148074 9.724771e-13 -2.2122e-41 0.03712207 -1.871365e-28
1.1418872e-19 -4.397483e-19 5.2582e-41 2.2529e-41 -2.5906e-41 0.056997117 6.530347e-13 2.262441e-18
2.1400601e-29 -0.04214102 -0.07121752 -0.06402316 -7.259071e-21 5.768829e-10 0.027351389 1.4525967e-13
0.023157874 3.2133983e-24 0.03170148 0.13573107 -1.8743404e-21 1.07033396e-10 -4.922e-41 -6.7237e-41

model2.2.bias f4 [128]
00000000: 344c a53e a422 a93e 7604 f792 ef05 873e
00000010: 18a8 25b2 6ae6 5992 da8f 02a7 6d29 2ca0
00000020: c138 0bb2 4a02 bd99 f09c 9597 a8f1 8da8
00000030: 5407 b7b9 4b80 d7ae 5981 a53e 367e 1fa8
00000040: 177b 0aa7 24e1 a93e a6a8 87b7 d07f 61af
00000050: 770b a53e f8f3 adb3 650c 5db4 4b97 2fb8
00000060: 92da 46a3 be56 bab4 fa57 283b afc1 9d3e
00000070: 7e1c 23b4 85fd 9ca4 de83 1288 c1b1 fe39
00000080: 0606 81b6 d04d 81a3 d615 37a8 270f a38a
00000090: d9d2 d699 d90b c4a2 09eb 409a ab62 b03e
000000a0: 7d21 3c3e c672 ac3e 3154 baa0 dce8 2eb8
000000b0: 8cf4 84a4 b4db 47b6 eff5 6d3e 0f8a a13e
000000c0: c494 30ae 9a6d c3a6 d8ae b43e eedb afad
000000d0: e303 42a5 50b8 3790 86ca 2ca6 3aa2 8caa
000000e0: 7c68 95b8 0c25 b03e 2e6c 81b8 2694 9c3e
000000f0: de35 13af 98a2 d23e 1d80 f197 d457 6698
00000100: 69a3 9892 0ca4 0fa6 0bb1 6e9e d430 c330
00000110: 9f4d d0a7 ff79 21a0 4ce8 819c f2f6 01a9
00000120: 3067 5ab1 353d 9a3e ea18 e58b 63d0 2726
00000130: 0d26 2880 d27d 699d 2d74 88b8 ebda cb81
00000140: e3fa 37a8 0d77 b13e 3eb4 893e be2a 02ae
00000150: 3897 983e 9c93 7e3e 7c30 5eb3 6c1d 08b5
00000160: 5eea b1a4 6c7d 9390 26f9 7f3e 7486 59a9
00000170: 2473 2989 74b2 8998 b34c 0cb5 877e 7f97
00000180: 9c71 7cb3 dd81 429f c986 c13e e685 06ad
00000190: febc afab 2938 6ca9 9c30 a081 17c0 55b4
000001a0: b563 4abb 6baf bd96 16b4 88b6 3d6f 129f
000001b0: c78c 5599 e5e9 4b1d a0a8 90b6 da2a a395
000001c0: 5ee1 963e fcab c29d 3801 15ad 7416 02b2
000001d0: 7c29 b82e 066b b0a2 e4e1 e829 546e 0598
000001e0: 145f 2fa7 3753 62a6 47e1 76ad f7af 9fae
000001f0: 850b 8e3e e98a 85b9 a5e3 c219 fda0 ae94
0.322847 0.3303424 -1.5588991e-27 0.26371714 -9.642484e-09 -6.8757134e-28 -1.8119106e-15 -1.4582673e-19
-8.103769e-09 -1.9543067e-23 -9.668516e-25 -1.5758946e-14 -0.0003490994 -9.7998575e-11 0.32325247 -8.853641e-15
-1.9218074e-15 0.3317958 -1.6171787e-05 -2.0509039e-10 0.3223531 -8.100318e-08 -2.0586738e-07 -4.1864154e-05
-1.07798856e-17 -3.4708313e-07 0.0025687204 0.3081183 -1.5190923e-07 -6.8083694e-17 -4.4090286e-34 0.00048579092
-3.845201e-06 -1.4019163e-17 -1.0163276e-14 -1.5702029e-32 -2.2212242e-23 -5.313845e-18 -3.989453e-23 0.34450278
0.1837215 0.33681315 -3.156534e-19 -4.17017e-05 -5.766015e-17 -2.9781195e-06 0.23238347 0.31550643
-4.0149897e-11 -1.3560551e-15 0.35289645 -1.9992865e-11 -1.6828135e-16 -3.6232376e-29 -5.994896e-16 -2.4981563e-13
-7.1243354e-05 0.34403265 -6.1713494e-05 0.30581778 -1.338871e-10 0.41139674 -1.56066e-24 -2.9771145e-24
-9.632832e-28 -4.9835416e-16 -1.2636227e-20 1.4201995e-09 -5.7815754e-15 -1.3677596e-19 -8.596551e-22 -2.8857945e-14
-3.178183e-09 0.30124822 -8.824508e-32 5.822218e-16 -3.68707e-39 -3.090234e-21 -6.506625e-05 -7.4884555e-38
-1.0212943e-14 0.3466114 0.26895326 -2.959654e-11 0.2980287 0.24860996 -5.17325e-08 -5.070676e-07
-7.715855e-17 -5.817452e-29 0.24997386 -4.83003e-14 -2.0396774e-33 -3.559386e-24 -5.2265676e-07 -8.2554644e-25
-5.877665e-08 -4.1188518e-20 0.37798145 -7.6467496e-12 -1.2486954e-12 -5.2451238e-14 -5.884447e-38 -1.9907053e-07
-0.0030882184 -3.06453e-25 -4.0740806e-06 -3.1008717e-20 -1.1040272e-23 2.6987747e-21 -4.311165e-06 -6.5902784e-26
0.29468817 -5.15292e-21 -8.46994e-12 -7.572101e-09 8.3747204e-11 -4.781821e-18 1.03420554e-13 -1.7245549e-24
-2.433767e-15 -7.852228e-16 -1.4033503e-11 -7.2617405e-11 0.27743164 -0.00025471233 2.0151075e-23 -1.7633009e-26

model2.4.weight f4 [1, 128]
00000000: b65e e63e 332e eb3e 1202 f311 c32e b53e
00000010: ff02 95ae 64d2 8012 3847 8724 7311 9d24
00000020: 27f9 5ab4 f1fe c499 af6f bb17 b887 a4a8
00000030: 7fd0 0f3a e202 572e 4d2b e53e bd83 41ac
00000040: 4bfb 9a26 942a ee3e 538a 7d37 41e6 b6af
00000050: 92ed f23e 113c 7333 7dcd e331 e3ba 9838
00000060: b736 47a4 7864 8eb5 d0fc 4dbb 2e8a d83e
00000070: 5428 9034 d753 89a5 f662 0288 b977 c5ba
00000080: f867 01b5 c31b 9ca3 1339 d72a aa83 068a
00000090: 7f04 091a c475 a3a3 f541 2324 8742 f73e
000000a0: 2355 703e bdb2 f03e f6cd e9a0 685e 463a
000000b0: cbef d0a3 1525 adb5 41a2 9c3e 3fb3 de3e
000000c0: 2765 59ae ea2b 58a7 6844 003f 3b13 a6ad
000000d0: 4d9e 8825 80d0 d110 e43c 7b32 52bb a72d
000000e0: f68e 74b1 1729 f83e 3983 03ba 9c34 de3e
000000f0: edd2 38a8 2e94 193f fe59 6629 e2ca 3618
00000100: f1b9 8593 3e63 f923 630e 159f 4db0 c7b0
00000110: f39d 022e d52a 979f 341a 4619 1caa a1aa
00000120: e352 59b1 aa8c d33e 7c71 110c e0f3 eba5
00000130: 82ea 3380 17ac a89e a579 26b9 3eee 0181
00000140: b3de 4527 1a1c f93e d2d8 b83e adb0 8bab
00000150: 7142 d03e 6ee4 a83e 7d15 2f39 8396 5a35
00000160: a1c2 9b24 7921 ad90 a252 aa3e 35c8 2ea9
00000170: 9b1a b289 e832 2426 0878 f435 271d c693
00000180: 4403 10b5 eff4 471d 6559 0a3f 168f eb2b
00000190: 59b9 74ab 62f9 6a35 266c dc01 a63c b533
000001a0: e2ee b73b 386a 7895 22a4 7039 d4f6 a11f
000001b0: 2742 f219 1118 e69e 4ca2 1db9 fc44 a016
000001c0: 4b86 cd3e 4d00 9d9c 7d51 39b4 4be8 b030
000001d0: f735 f1ae 4d2b 10a3 3774 04aa 265a 6f19
000001e0: b637 9527 5cd3 50a7 55a6 e82d c344 caaf
000001f0: 2814 c03e 67cc 4b39 8520 8299 a146 2994
0.44994134 0.45933685 3.8339916e-28 0.3538724 -6.776268e-11 8.129801e-28 5.8667567e-17 6.8117457e-17
-2.0393473e-07 -2.0368895e-23 1.2112785e-24 -1.8266516e-14 0.00054860854 4.88879e-11 0.44759598 -2.750008e-12
1.075401e-15 0.4651686 1.5112181e-05 -3.3269212e-10 0.47446877 5.6632476e-08 6.629931e-09 7.282735e-05
-4.3197592e-17 -1.0609065e-06 -0.0031431206 0.42292923 2.6851433e-07 -2.3822524e-16 -3.923678e-34 -0.0015065587
-4.820754e-07 -1.6925311e-17 3.8231275e-13 -6.4766286e-33 2.8334568e-23 -1.7722371e-17 3.540086e-17 0.48292944
0.23469977 0.47011366 -3.960803e-19 0.0007567168 -2.2652961e-17 -1.2900297e-06 0.3059254 0.4349613
-4.942993e-11 -2.9999828e-15 0.5010438 -1.8880555e-11 2.3699508e-16 8.275721e-29 1.4623968e-08 1.9068889e-11
-3.5587937e-09 0.4846885 -0.0005016807 0.43399513 -1.0259789e-14 0.5999173 5.1148315e-14 2.3625378e-24
-3.3757273e-27 2.7038665e-17 -3.1563878e-20 -1.4529263e-09 2.9698865e-11 -6.402185e-20 1.0241652e-23 -2.8717382e-13
-3.1624772e-09 0.41318256 1.1204544e-31 -4.0931258e-16 -4.767736e-39 -1.7858867e-20 -0.0001587631 -2.3864488e-38
2.7459967e-15 0.48654252 0.3610292 -9.925581e-13 0.4067569 0.32986778 0.00016697306 8.143035e-07
6.755025e-17 -6.828804e-29 0.3326617 -3.8809413e-14 -4.287696e-33 5.696792e-16 1.821435e-06 -5.0010973e-27
-5.364893e-07 2.6464058e-21 0.54042655 1.6737469e-12 -8.6943435e-13 8.753469e-07 8.097042e-38 8.439501e-08
0.005613194 -5.0166993e-26 0.00022949328 6.8594495e-20 2.5048932e-23 -2.4362151e-20 -0.00015033147 2.589293e-25
0.4014152 -1.0389466e-21 -1.7259113e-07 1.2871707e-09 -1.0968997e-10 -7.815425e-18 -1.1764275e-13 1.2374216e-23
4.141621e-15 -2.8980377e-15 2.6449213e-11 -3.6792444e-10 0.37515378 0.00019435734 -1.345482e-23 -8.546249e-27
